p3_collab-compet/checkpoints/agent_0_checkpoint.pth (torch, 83033 bytes, 6 tensors)

h1.weight f4 [128, 24]
00000000: 27c1 963d 984a 993e 2a7f c43b 6a42 05bc
00000010: a9b7 97be 6023 b4bd cb98 263a e400 503e
00000020: c4aa ce3d 2e3f 663c 61b9 81bd 9170 593e
00000030: f038 70be c299 06be 1497 c23d 2c9b a13c
00000040: 9bde 0ebe fdf5 6d3e 6bb7 ce3d 9a66 403d
00000050: 9097 84be 5114 99bd 9795 45bd f20b 7dbd
00000060: f211 5fbd c9cd 26be ef6b ac3d 046a 133e
00000070: b109 7fbe 6bb8 b93d 763c 1fbe c074 c4bd
00000080: fb79 c7bd fa1e 4abd 339f cabd 0b2e ad3e
00000090: b957 83be 7b85 803d e7ce 313e 653e 843e
000000a0: 6793 7fbb 348a 07be 7f86 f83d a511 6d3d
000000b0: 3eef 053e 2ad3 393e 5fdc 59bd a143 203e
000000c0: 6a61 56bd b0d2 353d 290c 933d f5cf e5bd
000000d0: 89c8 1e3e 5a8c 68be 1cfd 52bd abcd a4bd
000000e0: 666d 3e3e 45a6 d13d 18fd 10bd c287 f6bd
000000f0: 656c ecbc 4845 33be 9ede 323e 9c74 36be
00000100: a34b 1cbe 595a 85be c4c1 5ebd 7870 ca3d
00000110: 3f57 c6bd 1f1e 23be f177 84bd 1c90 b8bd
00000120: f68e 9a3e 8796 77bd 859f 273e 3b0a 16be
00000130: 23c7 cebd 0402 543e a324 ecbd b7c2 8fbd
00000140: 2cd3 733e 8b8c c3bd c228 aa3d ec56 5b3e
00000150: 040d 5d3e 100f 433d 4424 073e 944b 9b3d
00000160: aef5 813d b43d a03d b72b 01be e39f 613e
00000170: 1dd0 133e c2bd 0fbe a854 46be 17c5 993e
00000180: e5e1 25be f1a4 56bb e841 a83d 2367 00bd
00000190: 2454 2fbe e8b0 033e d057 14be 93d4 5dbd
000001a0: 726d 763d f4be 853e 262e 72bd 5836 473e
000001b0: 4969 ea3c b4b8 37be c1b1 1abe 6458 5c3d
000001c0: 0f72 1abe 8e98 94bd c2bf 66bc 5b98 8d3e
000001d0: c2ca 2e3e a1a2 b8be 96b7 84bd ac9d c5bd
000001e0: 548c 3dbd 4a01 1a3e e605 4bbd bd1c 86bd
000001f0: d553 843e 30c2 a5bd 70da b8bc e171 e7bd
00000200: 0631 a2bd 33f2 213e b7e8 f03d 1cae 4cbe
00000210: 9a12 8d3e c9af 983d 31f0 81be c2af b9bd
00000220: 7f11 a3bd bdce 63be 5384 1a3d b7e6 13be
00000230: a1d9 903e 44de 193e 15c3 c4bd 389f 60be
00000240: 62ed 393b 757e 263b b76b 353e c398 e9bd
00000250: e953 9a3e 3726 d7bd 317d 94bc b62f 9cbb
00000260: 31dd 59be bfb2 92be 9a95 903d 6917 883e
00000270: 76d2 543e 5a86 e93d 9650 16bd e090 5a3e
00000280: 6a95 403c 0fa1 08be e943 27be c2bc aa3e
00000290: eac8 563e 2dbb 14be 247e 243e 25e9 683d
000002a0: b7d7 24be ad8e 123f 0115 80bb 36ed 44bd
000002b0: ed02 3c3e abf2 cbbd 5205 143c d1d2 143d
000002c0: d580 34bd 85cd 103f 6223 bb3d be5c 3dbd
000002d0: f42e 963e dd99 9fbd 7bc5 2dbe 56f4 22be
000002e0: a0d8 6dbe d431 023f 3413 f83c da3b 44be
000002f0: 85b3 903d b5f5 79be 7a50 d83d a928 0cbe
00000300: 4d76 95bd 26e1 e1be 329f 11be 5a8c 6cbd
00000310: 544f 9c3c 0192 fd3d 1395 4e3e afba 003e
00000320: f5fc a13c a81b 1bbf 9513 fd3d f98a 70be
00000330: 2736 5abe 94c3 123d 81a7 e8bd e44d df3c
00000340: 49ff 2f3d 55e8 c2be ef01 0e3e b71b 34bc
00000350: 2561 42be 3655 ad3e 4291 0cbe 5a0f a93d
00000360: 9d5c ee3d bfa1 edbe 239c 923d 63e0 053e
00000370: fa72 31bd fdfc c43e 109f 08be 3af3 10bc
00000380: 9dd9 953d 3c72 53be 7e6d 59bb a482 153d
00000390: df3e 95be 2934 4a3e ff2d 413e 70e1 04bd
000003a0: bc5a d7bb 34d4 1ebe 4167 eebd 814e 7bbd
000003b0: e8ff aabe da5a 873e 2530 e03c 86a7 173e
000003c0: 7477 38be 8929 4c3e 0de7 4bbc 2d29 2f3e
000003d0: 9194 43be cb13 5fbd 4362 60bd 8e41 0f3e
000003e0: 4071 d63c 01f9 443e b364 fabd 6be9 973e
000003f0: 78ab 203c 48b5 6d3e 8da9 403e b22f 313e
0.0736106 0.29939723 0.0059966045 -0.00813351 -0.2963231 -0.0879581 0.00063551654 0.2031284
0.10091165 0.014053149 -0.06334186 0.21234347 -0.2345922 -0.13144591 0.09501472 0.019727312
-0.13952105 0.23238368 0.10093578 0.04697285 -0.25896883 -0.07474578 -0.048238363 -0.06177897
-0.054460473 -0.16289438 0.08419024 0.1439591 -0.2490604 0.09068378 -0.15550408 -0.09592581
-0.09740063 -0.049345948 -0.09893646 0.3382419 -0.25652865 0.062754594 0.17364083 0.25828853
-0.003899777 -0.13236314 0.12135028 0.057878155 0.13079545 0.18146959 -0.053188678 0.15650798
-0.052338995 0.04439038 0.07180054 -0.11221305 0.15506186 -0.2270979 -0.051510915 -0.080470406
0.1859642 0.102367915 -0.03539762 -0.120376125 -0.02886028 -0.17506897 0.17467734 -0.1781792
-0.15263228 -0.26045492 -0.054384008 0.09884733 -0.096846096 -0.15929459 -0.064681895 -0.09011862
0.30187196 -0.06044629 0.16369446 -0.1465234 -0.10096576 0.20703894 -0.115304254 -0.07019561
0.23811024 -0.09548291 0.08308555 0.21419877 0.21586996 0.047621787 0.13197428 0.07582775
0.06345688 0.07824269 -0.12614332 0.22033648 0.14434858 -0.1403723 -0.19368231 0.3003318
-0.16199453 -0.0032752121 0.082156956 -0.03134836 -0.17121941 0.12860453 -0.14486623 -0.054157805
0.06016297 0.26122248 -0.05912604 0.19454324 0.028614657 -0.17941552 -0.1510687 0.053795233
-0.15082572 -0.0725566 -0.014083805 0.276553 0.17069533 -0.36061576 -0.06480329 -0.09649214
-0.046276405 0.15039554 -0.049566172 -0.0654845 0.2584521 -0.08093679 -0.022565097 -0.113010176
-0.07919507 0.15815048 0.11763137 -0.19988292 0.27553254 0.07455403 -0.25378564 -0.09066726
-0.079623215 -0.22246833 0.03772385 -0.1444348 0.28291038 0.15026194 -0.096075214 -0.21935737
0.002837025 0.0025404964 0.17716871 -0.1140609 0.30142143 -0.10505336 -0.018126102 -0.00476643
-0.21275784 -0.28651997 0.07059784 0.2658036 0.2078341 0.11402579 -0.036697946 0.21344328
0.011754373 -0.13342689 -0.163345 0.33347136 0.2097508 -0.14524527 0.16063744 0.05686297
-0.16097914 0.57248956 -0.003908754 -0.048077784 0.18360491 -0.099583946 0.009034472 0.036333863
-0.044068176 0.565636 0.09137608 -0.046231024 0.29332697 -0.07793019 -0.16969864 -0.1591352
-0.23227167 0.5085728 0.030282594 -0.19163457 0.07065491 -0.24410136 0.10562225 -0.13687386
-0.07297955 -0.44117087 -0.14220884 -0.057751037 0.019080795 0.12381364 0.20174055 0.12571214
0.01977394 -0.60589075 0.123572506 -0.23490514 -0.2130972 0.03583105 -0.11360074 0.02725882
0.04296807 -0.3806788 0.13867925 -0.010992936 -0.1898237 0.33854073 -0.13727286 0.08254881
0.11638758 -0.46412465 0.07158687 0.13073878 -0.04332254 0.38474265 -0.13341928 -0.008847052
0.07316897 -0.20649046 -0.0033176835 0.03650154 -0.2914953 0.1974646 0.18865202 -0.032441556
-0.0065720957 -0.15510637 -0.11640788 -0.061354164 -0.33398366 0.26436502 0.027366707 0.14809999
-0.18014318 0.1993772 -0.0124452235 0.17105551 -0.19099642 -0.054462235 -0.05478121 0.13989851
0.026177049 0.19235612 -0.12226238 0.2967027 0.009806506 0.23213685 0.18814678 0.1730335

h1.bias f4 [128]
00000000: e05d 3fbb 8d05 313e 05ba 0cbe 470c bebb
00000010: 273d 9d3b a8aa e23c d71b a03d 6158 13be
00000020: 84e9 8e3e 8aaf 223e f0fe 913d 1467 04bd
00000030: 9278 38bd 5329 133e 3c2e 163e 21d3 3ebe
00000040: 1c9b d2bc 5fa9 07be 556d 30be 27e3 843d
00000050: e63e 883e c40a a43e 8628 673e 844d 0f3e
00000060: 045c 983d aad1 cdbd 0de3 bf3d 9e7f b03d
00000070: 585f 9e3d 35f8 f9bd d3d4 bd3d c94d 6abd
00000080: d8fd 99bd df37 393e a7ee e63d 7eee 04be
00000090: 8205 183e 2346 6f3d 8ada c9bc e259 31be
000000a0: c0f4 15be af56 66ba 2a05 d13c c1b1 233e
000000b0: a1fd 0d3e 9247 86bd 6241 5b3e bda7 25be
000000c0: 772e 01be ec48 52bd 19b2 60bc 3a2b fcbc
000000d0: f848 7cbe ebc7 e23d 6d8c a4bb 48a7 e6bd
000000e0: 807d 3bbe c805 9e3d 0c3a fbbd 1a82 173e
000000f0: 21c9 25be 6f44 b8bd dd90 22be 2f03 19be
00000100: 5989 aabe 75c5 c9bd 0176 5cbe b932 77bd
00000110: 246f bb3c 13b5 1d3e 1ef9 2ebd 9889 603c
00000120: 500d 5b3e a7e9 1fbe 60a6 0abe df85 a7bd
00000130: 84f7 23be 4ae5 5fbd dc26 01be 9f34 ecbc
00000140: 64bf 3b3e f2a5 38bc 1b68 0d3e c7fe fc3c
00000150: d732 13be 8b54 15be 02f9 a8bd 5876 883d
00000160: 81a8 f73d 5a09 e1bd 8196 5fbd 5b52 26be
00000170: 0784 033c 7801 1b3e 8b6d 813e ce31 ea3d
00000180: af88 1b3e 28d9 dbbd 4d41 22be e4b3 cfbd
00000190: 7c0f db3d 652a 343e 1f2f bdbc 810d c5bd
000001a0: 3887 de3b 6b44 aabb 01f9 733d 0962 a5bc
000001b0: 15c2 39be 6187 473e 5237 c0bd 1453 2bbe
000001c0: cfe4 213e 7ad7 423d e81c 4cbd e3d9 2dbe
000001d0: 7d41 9bbb f4e0 0a3e 188a 4e3d 7a35 92bd
000001e0: 5b51 92bc 4047 713d 0ed9 77be 3722 923d
000001f0: 7091 a53e 63a0 eebd b0f3 513e 65e2 f8bd
-0.002920024 0.17287274 -0.13742836 -0.0057998034 0.0047985497 0.027669266 0.0781781 -0.14389183
0.27912533 0.15887275 0.071287036 -0.032324865 -0.04503686 0.14371233 0.14666075 -0.18635227
-0.025708728 -0.13248204 -0.17229207 0.06488638 0.26610488 0.32039464 0.22574052 0.13994414
0.074394256 -0.10049756 0.093694784 0.08618091 0.07733029 -0.12205545 0.092691086 -0.057203088
-0.0751912 0.1808772 0.11275988 -0.12981603 0.14845851 0.058416497 -0.02464034 -0.17319444
-0.14644146 -0.00087867206 0.025515158 0.15985776 0.13866283 -0.0655662 0.2141166 -0.16177268
-0.12615381 -0.051339075 -0.013714337 -0.03078233 -0.2463721 0.110732876 -0.005021623 -0.11262375
-0.18309593 0.077159464 -0.12266931 0.14795724 -0.16190006 -0.08997428 -0.15875573 -0.1494262
-0.33307913 -0.09852115 -0.2152939 -0.060351107 0.022880144 0.15401106 -0.042718045 0.01370468
0.21391797 -0.15616475 -0.1354003 -0.08179831 -0.16012388 -0.054662026 -0.1261248 -0.028833685
0.18334728 -0.011270033 0.13809244 0.030883206 -0.14374863 -0.14583032 -0.082506195 0.06663197
0.120926864 -0.10988112 -0.05458689 -0.16242354 0.008027083 0.15137279 0.25278887 0.11435281
0.1518886 -0.10734779 -0.15845223 -0.10141733 0.10696313 0.17594297 -0.023093758 -0.09621716
0.0067910217 -0.0051961443 0.05956364 -0.020188348 -0.18140443 0.19485237 -0.093855515 -0.1673091
0.1580994 0.047568776 -0.049832255 -0.16977648 -0.0047380314 0.13562375 0.050424665 -0.07139106
-0.017861059 0.05890584 -0.24203894 0.07135432 0.32337523 -0.11651685 0.20503116 -0.12152556

h2.weight f4 [128, 128]
00000000: 91cb 023e 5e04 903d 8ccf 1a3c 6fff a2bd
00000010: 55db 903d 58a1 1d3e 42da e13d 5bac 18be
00000020: 8320 493d 1c83 7bbd cf9a 813e d8bc 95bd
00000030: 8b38 8cbc 947a 923d adcc 01bd 7c01 cf3c
00000040: da1c 43be 491e 0bbd fb79 613d 6e69 423e
00000050: 03a5 5f3d 1d1a bcbd c5c1 a13d 785e 333c
00000060: 8d93 573d e945 9d3d fb28 123c 6037 7a3d
00000070: 58a1 9a3d 55d6 99be 7854 663d 04ab 45be
00000080: c89e 43bd dc80 333d 29f1 0b3e 27ec 143e
00000090: 9fef db3c 5a33 e73d 958e b6bd cc50 d43d
000000a0: 8eeb 4a3d b38e a43d 6afe b13d d4e3 3bbc
000000b0: 5f58 87bd 677d fa3b 29f3 9fbd dea1 5c3c
000000c0: 3cc2 3d3e a589 7e3d 8a3f 0ebc 21ce 1a3e
000000d0: 9688 753d 7e34 433d 1bfe 543d 0163 303d
000000e0: 4ea7 9f3b 4f0a ef3d b747 fa3d bd57 93bc
000000f0: 0332 3f3d 62f1 d8bd b147 12bd 386b 463d
00000100: 0066 da3c 5ebd 2dbe 6d7e f3bd c56f 253e
00000110: 2e90 3e3d ea8f 053e 3522 9db9 3c47 b03d
00000120: 14de 353e 6605 713d ae11 12be 5fd0 d0bd
00000130: a722 f53d 2dfc 74bd ffbd 29bd 0f0a 80bc
00000140: 1f56 99bd 724c d8bc 316e 14be db48 2dbc
00000150: 7244 253e a3de 74bd 8f09 de3b f8d8 62bd
00000160: 3cc2 b4bd 7095 683c 3e0e 0ebe 28c8 a33d
00000170: bff6 ee3d d089 01be 20b4 a2be 4bf5 00be
00000180: 173c 0abe bd90 103d 5aa7 38be 2de2 b7bd
00000190: bb0a ef3c 3773 833b d300 69bc 25d9 a2bd
000001a0: 028c e1bd b819 30bd 9b82 41be 1dec a73d
000001b0: 0a55 93bc eb90 1abe ef0f 553e a974 a8bc
000001c0: 6ed6 a5bd 5afb c33b 20d2 3d3e 7a3f 0bbd
000001d0: 28a9 293d b4ef 4abe 3571 1abe f993 f1bc
000001e0: 0552 0c3e 6013 5a3e 339c 45bd a4dd 363e
000001f0: 33c5 56be d9dd acbd 2f16 2c3c 93ca 3dbd
00000200: c339 c33d 2cf5 9cbd 510b e63d dceb 7f3d
00000210: 30f5 5b3c e3bd 89bd 4698 f63d b45c b53c
00000220: 07df 5bbc e359 583c 83e1 1fbe 7e8e 983d
00000230: d71c 53bd d059 693d 870f 573d eb04 9dbd
00000240: d22f 6ebd d41a 983b c019 693d b175 f6bd
00000250: 9cb7 643d ffe9 84bb 1e54 2c3c 9a2d 00be
00000260: 0c7f adbd 4323 6cbd 2853 053e 8d24 8d3d
00000270: 5933 093d 8c5f 62bd aea6 c2bd 7723 c0bd
00000280: fa7c 783d 41a0 b43b 85da 6f3c e270 e03d
00000290: 6bfd 873d b43e 7b3d 4239 fbbd fa15 653c
000002a0: dec8 01be 8917 183b dee1 5f3d 5bde c83d
000002b0: f100 fbbd fff8 e5bb 2fa5 84bc 29b7 22bd
000002c0: f7ff 82be e804 a4bd 592c bb3b aeec f6bd
000002d0: 6c83 04be 7c2d 133d dca8 153d cec4 e7ba
000002e0: bc91 b33d 0a83 8dbb dea9 933d 05d1 433d
000002f0: a257 0dbe 4b5e 02bb fb03 fe3d 9fbb 713d
00000300: 2622 023d c04e 903d 59c5 de3d dd90 49bd
00000310: fe63 7bbd 40c5 d4ba f808 d63d ba8c 223d
00000320: bebe 6cbd 4b8c a63d a9a0 323b 900b 9e3d
00000330: a32e fc3d be7c 25be 9d17 0bbe 905b 4bbe
00000340: 1936 083c 5d12 2a3d d5bd c9bd 38d7 a33d
00000350: 553d 2b3e 86ea d63d 6da0 b2bd db6f 65bb
00000360: 8a31 1abe 4818 04be ea16 8b3c b6b4 baba
00000370: a8fb 463d e990 29be 31e9 043e f8b2 083e
00000380: 26ae e93d 8edb a0bd d839 29be 3bed d2bd
00000390: ccbf 893d 62f5 a03d 8db4 853d 4d67 b23d
000003a0: 38cb a53c 611f 94bd 2a18 b0bd 8836 4bbd
000003b0: 7d90 593e f6de 30bd 527c 9cbc 6892 26bd
000003c0: 166d e2bc 57be c6bb 1cb8 1f3e 5b28 f6bc
000003d0: 3aa1 12bd 3430 b13c ed7b cabd b22a 813d
000003e0: 45df acbb 5b63 efbd e301 b53d 33ec 3d3d
000003f0: c4ff 683d 2720 df3d 35d8 343d 488f 913c
0.12772967 0.07032083 0.009448897 -0.07958876 0.07073084 0.15393579 0.110279575 -0.14909498
0.04910327 -0.061404333 0.25313422 -0.0731141 -0.017116806 0.07152286 -0.031689335 0.025269262
-0.19053975 -0.03396443 0.05504797 0.1898553 0.054600727 -0.09184668 0.07898287 0.010947816
0.05263095 0.0767935 0.008920903 0.061087966 0.07550305 -0.30046335 0.0562329 -0.19303519
-0.047758847 0.04382406 0.13666214 0.1454321 0.026847659 0.112890914 -0.08913914 0.10366973
0.04954105 0.0803503 0.08691104 -0.011467893 -0.06608652 0.0076443437 -0.07810051 0.0134663265
0.18531126 0.062142987 -0.008682141 0.15117694 0.05994471 0.047657482 0.052000146 0.043063167
0.004872239 0.11671888 0.1222071 -0.017986173 0.046678554 -0.10592915 -0.0357129 0.048442096
0.026659966 -0.16966769 -0.11889348 0.16155918 0.04652422 0.1304318 -0.0002997086 0.08607337
0.17760497 0.05884304 -0.14264557 -0.10195994 0.119695 -0.059810806 -0.04144096 -0.015629796
-0.074871294 -0.02640364 -0.1449516 -0.010576452 0.16139391 -0.059782635 0.006776042 -0.0553827
-0.0882611 0.014195785 -0.1387262 0.07997161 0.11668157 -0.12650228 -0.3177805 -0.12593572
-0.13499485 0.035294283 -0.1803259 -0.089786865 0.029179921 0.0040115374 -0.014221388 -0.07951573
-0.110130325 -0.042993277 -0.18897478 0.08199332 -0.017984886 -0.15094344 0.2080686 -0.02056344
-0.0809754 0.005980891 0.18537188 -0.033996083 0.041421086 -0.19818002 -0.15082248 -0.029489504
0.13703163 0.21296453 -0.048244666 0.17857987 -0.20973663 -0.084407516 0.010503336 -0.046335768
0.095325015 -0.0766395 0.11232627 0.062480792 0.0134251565 -0.06725671 0.120407626 0.02213893
-0.013419873 0.013205024 -0.1561337 0.07449053 -0.051541176 0.056970417 0.052505042 -0.07666954
-0.058151074 0.00464187 0.056909323 -0.120341666 0.055839166 -0.004056215 0.010518102 -0.12517396
-0.08471498 -0.057650816 0.13020003 0.06891737 0.033496235 -0.0552669 -0.09504448 -0.093817644
0.060666062 0.005512268 0.014639501 0.10959031 0.066401325 0.061339095 -0.122667804 0.01398229
-0.12674281 0.0023207387 0.054658763 0.09808036 -0.12256039 -0.007018208 -0.016192047 -0.039725456
-0.2558591 -0.08008748 0.0057120738 -0.12056862 -0.12940758 0.03593205 0.03653799 -0.0017682554
0.08768031 -0.0043185996 0.07210134 0.04780676 -0.1380296 -0.0019892629 0.12403103 0.05901682
0.031770848 0.0704627 0.10877485 -0.049210418 -0.061374657 -0.0016233101 0.104509294 0.03968499
-0.057799093 0.081322275 0.0027256405 0.07717049 0.12313583 -0.16160867 -0.13583227 -0.19859147
0.008313679 0.04152142 -0.09850661 0.08000034 0.16722615 0.104939505 -0.08722005 -0.0035009298
-0.1505796 -0.12899888 0.0169787 -0.001424453 0.04857984 -0.16559185 0.1297958 0.13349521
0.11410169 -0.07854377 -0.16525972 -0.10299154 0.067260355 0.07859303 0.06528578 0.08711109
0.020238504 -0.072325476 -0.08598359 -0.049612552 0.21246524 -0.043181382 -0.01910225 -0.040666968
-0.027639907 -0.0060651707 0.15597576 -0.03004854 -0.03579829 0.02162943 -0.09886918 0.063069716
-0.0052756392 -0.116888724 0.088382505 0.046367835 0.056884542 0.108948044 0.044151504 0.017768517

h2.bias f4 [128]
00000000: fafa 8abc b1aa fabb ddff 0f3d f894 bcbd
00000010: 2d96 a03d 2162 2d3c ac5b d3bb 8727 8bbd
00000020: 81fa a33d 8e2d 4c3d c244 a1bd a811 fcbc
00000030: 8bf4 ec3c ba0a 993d 905b 8dbd cf79 78bd
00000040: b1fa 93bd 7be8 c83d 367d d9bc 92cd 6dbd
00000050: b862 48bc fddd c23c 1d37 d63d ae17 543d
00000060: 783f 733d 65ad 82bc 46a7 21bd d8d0 b2bd
00000070: 6209 b93d bcfd 903d 6318 d03c d41b 0d3d
00000080: bbd1 e13d 94b7 ae3d 0615 843d 28e2 62bd
00000090: 41b6 443d b433 cf3d 6589 05bd db15 673d
000000a0: faf9 4d3d 07fa 563d 51d3 ca3d 04d0 f7bc
000000b0: 207d ce3c ee25 99bd e566 a93d b31a a03d
000000c0: 002b 173c 61f5 ba3c df06 81bd e07c 0d3d
000000d0: 7882 ab3d 79e1 82bc 1cc2 56bd f0c2 a63d
000000e0: b652 253d af84 95bc 3b39 8a3d 9c58 8fbc
000000f0: 1352 24bd f34e eb3c 2cdb 553d 818b 99bd
00000100: da0c 7e3d 3475 a73c fe3f b93c 997e 7cbd
00000110: 1193 87bc 5b21 f43d 7366 703d 1c28 0e3c
00000120: 9a78 4d3d e3df 893d 9ccd 3a3d 6994 933d
00000130: b03d c7bd 5dbb 0d3d 0113 913b 8fd0 9c3c
00000140: f014 233d d141 cb3d 1c35 983c dd2a bb3d
00000150: 7b4c 443d 09af 0abd 7df3 d43c eb5e 89bd
00000160: b798 a539 1811 c5bd db71 2f3d aba8 b03d
00000170: 0580 ca3c f3e5 d7bd ec2b 393d 0101 de3d
00000180: b2b1 aebc 6d93 5c3d cd74 4c3d 9a14 bd3b
00000190: 692c b7bd 06df 35bd 0071 323d 7b3f 4fbd
000001a0: 94da 4d3c becd 943d 0bfd 5dbd 5283 903d
000001b0: b52c f6bc 8e1b 6c3d 6d1a 9e3b 61a1 10bc
000001c0: f173 79bd 4634 a43c 31e3 36bd 406a d03c
000001d0: e2e9 b53d 20e1 84bc 4f5b 783d 8dd1 ee3d
000001e0: a345 aa3c dfc9 813d d152 1fbd 3f11 a63c
000001f0: e5fd 0ebd 2d0c 28bd c670 c0bc 8157 61bd
-0.016965378 -0.0076497425 0.03515612 -0.09208101 0.07841144 0.010582478 -0.006450137 -0.067946486
0.08006764 0.04984813 -0.07874443 -0.030770138 0.0289252 0.07472749 -0.0690223 -0.06066304
-0.0722555 0.09809967 -0.026548963 -0.058057375 -0.012230568 0.023787493 0.10459731 0.051780395
0.0593867 -0.015951822 -0.039466165 -0.0873124 0.09034993 0.07079646 0.025402253 0.034450367
0.11026331 0.085311085 0.064493224 -0.05539146 0.048025373 0.101172835 -0.032601733 0.056417327
0.050287224 0.05248454 0.09903587 -0.030250557 0.025206149 -0.07477938 0.08271579 0.078175925
0.009226561 0.022822084 -0.06300139 0.03454292 0.08374494 -0.015976654 -0.05243121 0.0814265
0.040362082 -0.018251745 0.06749197 -0.017498307 -0.040117335 0.02872417 0.05221097 -0.074973114
0.062023975 0.020441629 0.022613522 -0.06164417 -0.016549619 0.119204246 0.058691453 0.008676555
0.050163843 0.06732156 0.04560624 0.07206041 -0.09728563 0.03460251 0.0044273143 0.019142417
0.03981489 0.09924663 0.018580012 0.09139035 0.0479245 -0.033858333 0.02599501 -0.06707557
0.00031585034 -0.09622401 0.04283319 0.08625921 0.024719248 -0.10541906 0.045207903 0.10840035
-0.021324966 0.053851534 0.049916077 0.005770278 -0.089440174 -0.044402145 0.043564796 -0.05059765
0.01256432 0.07265805 -0.0541964 0.07056297 -0.030050615 0.057643466 0.0048249275 -0.008827538
-0.060901586 0.020044457 -0.04465026 0.025441289 0.088825 -0.01622063 0.060633954 0.116610624
0.020785159 0.06337332 -0.03889734 0.020271895 -0.0349101 -0.041027237 -0.023491275 -0.05501509

out.weight f4 [2, 128]
00000000: 49ea 6bbd 5083 5bbe ca91 f23d cfc9 3abe
00000010: f222 45bd 4ccc fa3d ccab f73d 2c46 16be
00000020: b70b 1dbe 64d8 b03e 3b72 74bb 1d19 12be
00000030: 0d2a e23d 04ca 0bbe 7b9f 63bd 6b5a 9c3b
00000040: 465e b33d 1c16 57be edd9 b73d f806 24be
00000050: 3b7b a2bd 35d7 07bc 0dc1 293e 0632 1c3e
00000060: f534 0b3e 49f9 2fbe 5d7e 153e 6bd3 efbc
00000070: 123b 01be ab88 1fbe 86f2 16be b1a3 073e
00000080: 4874 07be 12d3 2e3e 1e39 803e ad62 b43d
00000090: a8b8 243e 18c3 e93d 8fab 243e a967 a83c
000000a0: ed53 a43d e4b0 d13d ec6a e2bd 06c4 f9bd
000000b0: a89c ccbd adc9 02be 89fd 04be a3fd 22bd
000000c0: 575f 1abd e402 933e 4d8b a53c b14d 50be
000000d0: 371f 4fbe c3aa 153e cabe 963d 545d a1bd
000000e0: 6150 69be b550 3d3e f360 97bc 9397 8dbd
000000f0: ae13 9d3e f825 5d3e 2785 26bd aba8 24be
00000100: 84d6 17be f2b3 39be dd9e 003e 99bb 0f3e
00000110: bcdb 223e 2bf2 05be b6f1 cc3d fbe6 ac3e
00000120: a1b9 4a3e ae8e b63e ae05 bf3e de5d 723d
00000130: 9ac9 c43d dee9 b5be 8862 c7bd 5760 0dbe
00000140: b8f2 fa3d ab58 183e ab5a 05be be5c d23c
00000150: db7a f4bd 0b23 a53d f415 b4bd f527 e13d
00000160: 5fff be3d 3336 2a3e bf30 e4bd d18e 33be
00000170: 8195 0ebe 50e9 0ebe 6b0d 0dbe 1f99 20be
00000180: c004 0fbe 4727 813d 48d7 933d e590 0e3e
00000190: 897e 083e f501 583e feb5 25be 635b 033e
000001a0: 69a6 11bd bd69 f0bd e15e 233e 31bf b4bd
000001b0: 3fa2 513d 5906 dc3d 4ecf 383d 5d4d 7a3e
000001c0: caea 88bd 71ad 0fbe ffd3 17be 2784 c83e
000001d0: 841b 7ebd a40a 3bbe e400 e43d 277e f33d
000001e0: 31f7 6f3d 8941 21be f565 12be fae5 16be
000001f0: 3e5a e7bd 7d6a babc 6672 c93d ecd2 5abe
00000200: e234 b7be 34f3 a13e 7c23 85be d67f 6cbe
00000210: 0d72 863e e3ca 923d a438 9cba d2cf 073e
00000220: b21d da3d 4f25 83bd 5a9e aa3e 9cfc be3d
00000230: f4b3 1d3e e9cd 77bd c188 9d3e 5668 4ebe
00000240: 1776 7abe 583b 2f3d e61b a33d b247 1bbe
00000250: 4f00 d1bc ad63 c53e a6a9 18bd 361f d0bc
00000260: b5d2 77bd 7fad 953d 9ce0 63bd 9890 b8bd
00000270: b193 8bbb c653 e43d 6bf1 1d3e 0012 843d
00000280: 3747 f63d d587 04be a2c0 093e e0ee 0fbe
00000290: a6c5 433c 7ed1 933e aa49 ecbc 09c1 34be
000002a0: 32cb f4bd 7b70 303c f354 e33d e9ee f03d
000002b0: a768 933d db4c 1abd be31 e1bb 1689 363e
000002c0: 2c88 c4bd 4f6e 97be 55b7 72bd 45a5 5d3e
000002d0: 36e1 df3d 7993 0cbc 83fa 49bd f734 113d
000002e0: 3f49 d2bd 3ad9 97be 3381 703e 8daf e4bd
000002f0: d133 26be b28d 32be 2115 dcbd 0eaa 12be
00000300: 4b22 673d 8afd c23d e345 34bc cdfd 8abd
00000310: a9f0 32bd 4200 343e 2f2a 6f3d 4371 b5bb
00000320: 827d bfbc 9161 b3be 9b1a 52bd 7b71 c2bc
00000330: d17e 813d 74d6 723d 52ab cfbd 0b4d d03d
00000340: 5ea4 26be 65e6 8bbe 4e8e 52be 141e 1a3e
00000350: a9a5 d9bc 0098 3f3c 48e0 253e 0ef1 17be
00000360: 7753 073d 4079 aabe 4ec4 ac3d 527d 213e
00000370: bec9 833d 638b a1bd 97ff e23b abe8 23be
00000380: 27c0 15bd a084 a83d c8b8 07be 8667 1c3e
00000390: 7843 56be 17a5 673d ebcb b83d a4b9 df3d
000003a0: 5fc0 793d 4e2e 833e ff49 55be 3c8d 17be
000003b0: e85f 6cbe 6524 e6bd f616 0e3e 3711 483e
000003c0: ba35 09be 21c9 253d 326d 063e f2cf dc3c
000003d0: f766 403e be44 5d3e 5e08 53bd 2043 693e
000003e0: 8c8c b53c b7d8 8a3e b683 8fbd f6ba c93d
000003f0: 84ca 4abe c956 a73e e8c3 2739 fe90 4fbe
-0.05759648 -0.2143681 0.11844213 -0.18241046 -0.04812903 0.12245998 0.120933145 -0.14675206
-0.153365 0.34540093 -0.0037299532 -0.14267392 0.11043177 -0.13651282 -0.055572014 0.004771521
0.087582156 -0.21004528 0.08977113 -0.16018283 -0.079336606 -0.008291055 0.1657755 0.15253457
0.1359442 -0.17184938 0.14598985 -0.029275617 -0.1262019 -0.15579478 -0.14740953 0.13246037
-0.13227952 0.17072704 0.25043577 0.088078834 0.16086066 0.11414164 0.1608107 0.020557242
0.0802382 0.10238817 -0.1105555 -0.12195592 -0.09990817 -0.12772246 -0.12987341 -0.039792668
-0.03768858 0.28713143 0.020208025 -0.20342137 -0.20226751 0.14615922 0.07360609 -0.07879129
-0.22784568 0.18487819 -0.018478846 -0.06913676 0.30679077 0.21596515 -0.040654328 -0.16079967
-0.14827925 -0.1813505 0.12560602 0.14036407 0.15904135 -0.13080661 0.1000704 0.33769974
0.19797374 0.3565573 0.3730902 0.05917155 0.09608765 -0.3552999 -0.0973559 -0.13806282
0.12253326 0.14877574 -0.13022868 0.025678989 -0.11937495 0.080633245 -0.0879325 0.10993949
0.09326052 0.16622238 -0.1114211 -0.17534949 -0.13924219 -0.13956189 -0.1377465 -0.15683411
-0.13966656 0.0630632 0.07218796 0.1392246 0.1332952 0.21094497 -0.16182706 0.1282783
-0.03555909 -0.11738918 0.15954162 -0.08825529 0.05118012 0.10743398 0.045119576 0.24443574
-0.066854075 -0.14031006 -0.14826964 0.39163324 -0.06203796 -0.18265778 0.111329824 0.11889296
0.05858535 -0.15747656 -0.14296706 -0.14736167 -0.11296509 -0.022755856 0.09836273 -0.21369523
-0.35782534 0.31630862 -0.26003635 -0.2309564 0.2625889 0.07167604 -0.0011918736 0.13262871
0.10650195 -0.064036004 0.33323938 0.09325525 0.15400678 -0.060499106 0.30768397 -0.20156989
-0.2445911 0.042781204 0.079643056 -0.15164068 -0.025512842 0.3855261 -0.037271164 -0.025405508
-0.06050368 0.073084824 -0.055634126 -0.09011954 -0.0042595495 0.11148791 0.15424125 0.06448746
0.12025302 -0.12942441 0.1345239 -0.14055967 0.0119489785 0.28870767 -0.02884372 -0.17651762
-0.11952819 0.010769005 0.11100187 0.117643185 0.07197695 -0.03767095 -0.006872385 0.17825732
-0.09596285 -0.29576346 -0.05925687 0.21645077 0.109316275 -0.008580082 -0.049311172 0.0354509
-0.10267877 -0.29657918 0.23486786 -0.11166296 -0.16230704 -0.17436865 -0.107462175 -0.14322683
0.05642919 0.09521015 -0.01100299 -0.0678669 -0.043686543 0.17578223 0.05838984 -0.0055371835
-0.023375276 -0.35035375 -0.051294904 -0.023735752 0.063230164 0.05928655 -0.10140099 0.10170945
-0.16273639 -0.27324215 -0.20562097 0.15050536 -0.02656825 0.0116939545 0.16198838 -0.14838049
0.033038583 -0.3329563 0.0843588 0.15770462 0.06434964 -0.07887914 0.0069274413 -0.16006725
-0.036560204 0.08228421 -0.13254082 0.15273866 -0.20924175 0.056553926 0.09023269 0.1092408
0.060974475 0.25621265 -0.20829009 -0.1479997 -0.2308346 -0.112374105 0.13875946 0.19537817
-0.13399401 0.040475015 0.13127592 0.026954625 0.18789278 0.21608254 -0.05152165 0.22779512
0.022161745 0.27118465 -0.07007544 0.09850113 -0.19803816 0.326834 0.00015999342 -0.20270154

out.bias f4 [2]
00000000: ff07 813d 6ed1 3cbd
0.06300353 -0.046098165
