p3_collab-compet/checkpoints/agent_1_checkpoint.pth (torch, 83033 bytes, 6 tensors)

h1.weight f4 [128, 24]
000000 57 a1 03 3c 1b a2 ca be 90 1b 97 bd 99 91 9d be
       0.008034072 -0.39576802 -0.07378304 -0.30775145
000010 87 fd 61 3e b0 1c 5a be cc ca b6 3d 80 1c 9b be
       0.2206937 -0.21300006 0.08925399 -0.3029518
000020 23 f3 3e bd e9 5e 87 be 31 13 d3 3d f1 52 14 3e
       -0.046618592 -0.26439598 0.10306395 0.14484765
000030 dd 79 1c 3c 31 7c 84 be 63 64 f0 bd f3 01 52 be
       0.009550539 -0.25876 -0.11737897 -0.20508556
000040 05 7b 5a 3e 27 99 b2 be 23 82 df 3d 65 55 0c 3d
       0.2133599 -0.3488247 0.109134935 0.034261126
000050 58 af 3f 3e 39 21 c4 be d4 0a 5d 3d f8 2f e9 3c
       0.18719232 -0.38306597 0.053965405 0.028465256
000060 94 3a 5e 3e 16 d0 c7 be a0 37 31 3e af a3 38 be
       0.21702033 -0.39025944 0.17306376 -0.1803119
000070 84 d0 94 3e 9c 96 a2 bd 31 44 ad 3c 62 28 a2 be
       0.29065335 -0.07938883 0.02115068 -0.31671435
000080 44 96 92 bc cd 3d 9f be d2 1f 18 bd 14 91 2f be
       -0.017893918 -0.31101838 -0.03713972 -0.17145187
000090 53 eb e7 3e a6 3b b3 3d 41 fa 3f 3d 47 08 63 be
       0.45296726 0.087516114 0.04686952 -0.22171126
0000a0 58 d9 e9 bd f8 bf 9d be cf 99 b1 bd a5 8d 21 be
       -0.11418408 -0.30810523 -0.08671915 -0.1577669
0000b0 43 be ff 3e 39 b2 be 3d 3d 21 d9 bd ca 7b 2b be
       0.49949846 0.09311337 -0.10602043 -0.1674644
0000c0 bb bb 5d bd d3 85 19 3e 35 21 f2 bd dd e8 ba bd
       -0.05413411 0.14992456 -0.1182274 -0.091264464
0000d0 89 12 82 3e 0d ec da 3d 1f 85 87 3d 3f 58 34 3e
       0.25404766 0.10689554 0.06617188 0.17611788
0000e0 69 d8 bc bd 51 67 df bd f3 4f 19 3e a6 ac 06 be
       -0.092209645 -0.10908378 0.14971904 -0.13151798
0000f0 2e 4c 43 3e 69 86 19 3c f8 e5 7a be f2 df a7 bd
       0.19072029 0.009370425 -0.24501789 -0.08197011
000100 07 8b 4d bd 9a cc 30 3e d9 ef 6e 3d f6 92 b3 bd
       -0.050181415 0.1726555 0.058334205 -0.08768265
000110 71 9e 3b be eb 9a 02 3e 77 f7 99 3d 36 33 05 be
       -0.1832216 0.12754409 0.07517903 -0.13007817
000120 2b a1 0c 3e 12 b6 e0 3d 76 c5 76 bd 7c ad 76 bd
       0.13733356 0.10972227 -0.060246907 -0.06022404
000130 d6 4a 37 3e 9a fe 67 3e 99 34 ad 3d 03 1c 3e bd
       0.17899641 0.22655717 0.08457298 -0.046413433
000140 63 d9 71 3d cc 06 eb 3c ea 19 be bd f2 73 1f be
       0.059045207 0.028689764 -0.092822865 -0.15571573
000150 4a cf 1a 3e 8a 4c 26 bd 3e 6b 11 be c7 3e 3f be
       0.15118137 -0.040600337 -0.14201066 -0.18676291
000160 4d b1 8d be a3 c4 41 be 2f 88 20 3e 29 28 c1 3d
       -0.27674332 -0.18922667 0.1567695 0.09431488
000170 a7 87 08 be d4 03 97 3e 4b 79 f2 3d 35 34 4f bd
       -0.13332997 0.29495108 0.11839541 -0.050586898
000180 ec 16 95 bd 85 a0 03 be 48 d9 b6 bd 7c 39 cb 3b
       -0.072797626 -0.12854202 -0.08928162 0.006201921
000190 2e 38 25 be b6 9f 1a 3e 78 18 4b bd 60 ea 0d 3e
       -0.16134712 0.15099987 -0.049583882 0.13858938
0001a0 ac ed 2a bd d8 35 92 3d 7c 36 43 be 76 ba 31 be
       -0.041730568 0.07139176 -0.19063753 -0.17356285
0001b0 c8 3b f4 3d 78 c0 7a 3e 25 e1 e6 3d b8 b1 66 bd
       0.11925465 0.24487484 0.11273412 -0.05632183
0001c0 fa fe 5b be a1 35 31 be ff a2 b8 3d fd 12 7b 3e
       -0.21483985 -0.17305614 0.09015464 0.24518962
0001d0 75 b3 14 3e 1e 80 4b 3e ba 5d 20 be 3b a4 52 3a
       0.14521582 0.19873092 -0.15660754 0.00080353365
0001e0 6c f6 58 bd 16 d2 8b be 12 96 03 be 60 5a 55 3e
       -0.05296938 -0.2730872 -0.12850216 0.20835257
0001f0 0c f3 01 be 1a 4a d0 3b 7d 04 58 bd c6 32 1c 3e
       -0.12690371 0.00635649 -0.052738655 0.15253744
000200 c3 d9 c9 3c 42 04 99 be d6 ba 3e be f2 b6 9b 3e
       0.02463997 -0.2988606 -0.1862596 0.30413014
000210 dc 3b 5c 3d 31 96 81 be 07 1b cf bb 3e 8e b8 3c
       0.053768024 -0.253099 -0.0063203606 0.022528764
000220 71 f4 92 be ca 1e 9a bc 3f 0a 79 bd 87 81 17 3e
       -0.2870212 -0.01881351 -0.060800787 0.14795505
000230 f8 96 90 3d 21 6a 1c 3c e6 ad 6b 3d f4 0d 7d 3d
       0.07060045 0.0095467875 0.05753889 0.061780885
000240 77 51 10 3e 09 83 41 3e 0f 8d e1 3d ae 65 d0 bb
       0.14093576 0.18897642 0.11013233 -0.0063597774
000250 a0 28 df bd f2 79 81 be 19 c4 89 be 4e f4 24 bd
       -0.108964205 -0.2528835 -0.26907423 -0.04027205
000260 54 7d a1 3d 3f 46 a7 3d e8 d1 30 be 3d fd 98 bd
       0.078852326 0.08167695 -0.17267573 -0.07470176
000270 47 16 0d 3d cd 76 8e bd d6 94 0d 3e 42 2d 30 be
       0.034445073 -0.06956253 0.13826308 -0.17204764
000280 c6 82 ac 3d 49 e2 0f 3c e1 c8 02 be 1a 66 8b bc
       0.084233806 0.008781978 -0.12771942 -0.01701646
000290 63 a2 93 3e 24 66 49 3e 05 e7 19 3e 4b ce a0 bd
       0.2883483 0.1966787 0.15029533 -0.07851847
0002a0 55 ac 03 be 6e 57 81 3e f4 47 74 3d 5b 0d 3e 3e
       -0.12858708 0.25262016 0.059638932 0.18559782
0002b0 46 97 2a be e9 2f 4e be da 8c 6a 3e ac a2 69 3e
       -0.16659269 -0.20135464 0.22905293 0.2281596
0002c0 e0 1c 67 3c 05 43 74 3e f0 af b9 bd c6 fa b5 bd
       0.014106005 0.23853691 -0.090667605 -0.08885722
0002d0 67 1c e6 bd a9 88 4b bc 82 a4 0a be 42 54 c4 3c
       -0.11235886 -0.012422719 -0.13539317 0.023965959
0002e0 32 16 72 bc 57 3d 49 3e c0 3a 13 bd ef 8e 4f bd
       -0.0147758 0.19652306 -0.0359447 -0.05067342
0002f0 27 c5 67 3c 5d 6e 72 bd 04 53 f0 3d a8 36 ae bd
       0.014146126 -0.059187282 0.11734584 -0.085065186
000300 c7 69 31 3e c1 0b 79 3d 40 4f a3 bd 56 e0 69 be
       0.17325507 0.060802225 -0.079741 -0.22839484
000310 03 a3 46 3e 4c ed 13 bd 95 dc f5 bd 11 45 68 be
       0.19398122 -0.036114976 -0.12004963 -0.22682597
000320 d1 d2 97 3e 55 6f 39 bd 93 cd 19 be b8 4c 24 3d
       0.29653028 -0.04527219 -0.15019827 0.040112227
000330 9d 31 72 3e 22 eb 91 bd 37 dc 8e 3c 5a da 91 3d
       0.23651738 -0.07124926 0.017438991 0.071217254
000340 ad 82 db bd 20 9e 51 be 44 b3 43 3d 97 e1 06 3e
       -0.10718284 -0.20470476 0.047778383 0.13171993
000350 32 1b 88 3d 5c 65 2a 3e e7 5e ec bc 24 cf 41 3d
       0.06645812 0.16640228 -0.028853847 0.047316685
000360 2e b3 58 bc 27 49 34 3d bd 28 17 be 27 32 80 3d
       -0.0132263135 0.044015076 -0.14761634 0.06259566
000370 e7 18 db 3d ed 2a 1a ba a2 41 a8 3d 4b 6c 83 bd
       0.10698109 -0.000588103 0.082156435 -0.064171396
000380 9f 30 13 bb f2 19 4c bd 49 ae 4f bd de fd 94 be
       -0.00224594 -0.04982943 -0.05070332 -0.29099935
000390 42 0b 94 3e ed b3 85 bc fd f4 bc 3d bc 1b 61 be
       0.2891484 -0.016321147 0.09226415 -0.21983236
0003a0 b0 4b f6 bd e2 8b ec 3c bc 00 6e 3d 03 44 72 be
       -0.12026155 0.028875295 0.05810617 -0.23658757
0003b0 26 ca 59 3d fa 90 a5 bd 61 09 12 bd e4 66 71 be
       0.0531713 -0.08084293 -0.035653476 -0.23574406
0003c0 96 ab 5c be 72 4d f0 3d 32 a9 d9 ba c3 58 44 3e
       -0.2154983 0.117335215 -0.001660621 0.19174485
0003d0 37 00 27 3d 3b 2b 4d be 76 63 13 3e db a0 e1 3d
       0.04077169 -0.20036022 0.1439341 0.11017009
0003e0 34 06 99 3d 44 03 9e 3e 53 66 04 be cd 3d 38 be
       0.07471886 0.30861866 -0.12929659 -0.17992325
0003f0 03 ea 0f 3c 8a a4 61 3d ae 79 05 3e f8 57 c3 bd
       0.00878382 0.055088557 0.13034698 -0.09538263

h1.bias f4 [128]
000000 68 bc 17 be f6 b4 d1 bd 67 bc 3d be 1e 00 37 3e
       -0.14817965 -0.10239594 -0.18528901 0.17871138
000010 fa b5 04 be 91 c1 b9 bd b9 89 1c be b7 4f b8 bd
       -0.12960044 -0.09070123 -0.15286912 -0.089995794
000020 c3 2b ba bb d2 96 d0 3d f5 1f 0a be 44 9d 2c 3e
       -0.0056814863 0.10185017 -0.13488753 0.16856867
000030 fa 57 84 bd c0 b1 38 3e 4b 58 32 3e a7 e8 01 3e
       -0.06462093 0.18036556 0.17416494 0.12686406
000040 4c 07 39 3d 35 23 11 3d c9 4a 5a bd c5 32 24 be
       0.045172974 0.035433967 -0.053293977 -0.16034992
000050 c3 cf c5 bd d4 f6 c2 bd 28 49 4c bd 86 e5 02 3d
       -0.09658768 -0.09519735 -0.049874455 0.03195717
000060 97 28 76 3e 46 8b 89 bc 9b c9 4a 3e f0 23 14 bc
       0.24038921 -0.016790044 0.19803469 -0.009041771
000070 7b ee 2d be b2 09 2c 3d 61 f2 02 3e 6c 5f 73 bd
       -0.16985504 0.042001434 0.12787773 -0.059417173
000080 ca 6c c3 3d 1e dc 2c 3e d2 b5 0f bd 17 49 23 3e
       0.09542234 0.16880843 -0.035085507 0.1594585
000090 19 21 89 bd 4d 84 3f 3e b8 0b 77 bd f5 04 16 3e
       -0.06695766 0.18702812 -0.06031391 0.14650328
0000a0 52 cc f8 bd 8f 3c ef bd 79 2d 38 be 5d bf ab 3d
       -0.12148346 -0.116814725 -0.17986096 0.08386109
0000b0 ab e7 83 bd ce e4 ac 3d 2f c1 83 bd 3d 7f e0 bd
       -0.064406715 0.084420785 -0.06433331 -0.10961769
0000c0 da 75 1e be 32 ca 4b be b2 a9 e0 3d 6f 35 45 bd
       -0.15474644 -0.1990135 0.10969867 -0.04814666
0000d0 e8 db e1 3d a3 a7 5f 3d 06 82 1a bd e6 31 87 3e
       0.11028272 0.05460323 -0.037721656 0.26405257
0000e0 4e d5 15 be 3a 7a ec 3c 69 3a 41 3a d2 63 82 bc
       -0.1463215 0.028866876 0.00073710695 -0.015916739
0000f0 28 64 12 3d a1 e4 75 3e 6d ff 42 3e fc 5e eb 3c
       0.035740048 0.24012996 0.1904275 0.028731816
000100 16 65 9f bd b3 ae 5e 3d 10 b7 0b bd 7f 54 f3 bd
       -0.077829525 0.054365825 -0.03411013 -0.11881351
000110 a9 52 06 be a8 59 24 be 7f 38 28 3d 5d d5 3c 3e
       -0.1311747 -0.16049826 0.041069504 0.18440767
000120 db c3 0d bd 70 75 d1 bd 2d f7 fd 3d 0f ce 81 bd
       -0.03461061 -0.102274776 0.12400661 -0.06338131
000130 57 9d 50 3b 91 23 1d 3e dc 36 2e be 91 11 47 3e
       0.0031832063 0.15345599 -0.17013115 0.19440295
000140 73 c2 f2 3c ac eb 54 3e 3b 99 3c be 26 56 db bc
       0.029633736 0.20793027 -0.18417828 -0.026774477
000150 3c 2c 88 3e 9c 7c 42 3d 38 c3 61 be f3 c9 34 3e
       0.26596248 0.047482118 -0.22047126 0.17655163
000160 6b 2b 53 be e6 4f 0a 3e 5b 45 0e bd 4d 3a 38 3e
       -0.20622031 0.13507041 -0.03473411 0.1799099
000170 e9 0a c4 3d c4 0f 46 be be fc 1f 3e cd 4f af bb
       0.095723934 -0.19341952 0.15623757 -0.005350089
000180 4e cb cf bc fe 78 c5 bc 99 78 30 3e 18 c5 a2 3c
       -0.025365498 -0.024105545 0.17233504 0.019869372
000190 b2 84 dc 3d 4f 81 19 3d d7 8b 71 3e 8f 31 2f 3d
       0.10767497 0.037476834 0.23588501 0.042771872
0001a0 0f 5e b6 3d 7f 0b 2c 3c bf 99 31 3e 1b 0e 4b be
       0.08904659 0.010500788 0.17343806 -0.198296
0001b0 b1 8e 31 3e 68 c2 cc 3d 66 b3 7e 3d 9e 9d 11 3e
       0.17339589 0.099980175 0.062182806 0.14220282
0001c0 d8 5c 0f 3e a4 e2 9c bd e7 08 56 be 82 f0 ea 3d
       0.14000261 -0.07660416 -0.20901833 0.114716545
0001d0 30 28 24 3e f5 0c 63 bd 7d a5 0f be 25 34 a4 bd
       0.16030955 -0.05543228 -0.14027973 -0.08017758
0001e0 dc a0 26 be 9c 2f 29 3c 84 0a 8f 3d 69 5c 38 be
       -0.162723 0.010326292 0.069844276 -0.18004002
0001f0 77 83 b5 bd 3c e1 83 3c 13 6c 59 bd 81 4c bd bd
       -0.088629656 0.016098611 -0.053081583 -0.092431076

h2.weight f4 [128, 128]
000000 86 06 1c 3c 0e 55 b4 be f6 ef 22 bb 2b 8b dd 3c
       0.00952304 -0.35221142 -0.0024862266 0.0270439
000010 be 1b ec 3d b5 ef ca 3c 8b 23 ab 3d a6 d9 db 3c
       0.11528729 0.024772504 0.08356389 0.026837181
000020 94 d9 9f 3d 2b 0f f8 3d e7 02 fb 3d f2 41 12 be
       0.078051716 0.12112268 0.12256413 -0.14282969
000030 52 44 10 3e 88 f5 26 be bc 4a 60 3c 54 52 95 bd
       0.14088562 -0.163046 0.013689693 -0.072910935
000040 25 64 bd 3d 93 81 7c 3d 13 6e 80 bd 19 07 1f 3e
       0.09247617 0.06164701 -0.06270995 0.15530051
000050 76 29 b9 3c 49 f7 80 be 30 49 ab 3c e4 f6 57 3e
       0.022602778 -0.25188664 0.020908922 0.21090275
000060 a0 6c bf 3d 0a 72 0f be 1a c2 8b be 25 fe 07 3d
       0.093468904 -0.14008346 -0.27296525 0.033201355
000070 f1 cc a1 bc 8e 2f 84 3d f9 6f 2a be 93 b4 24 bc
       -0.019751044 0.06454383 -0.16644277 -0.010052818
000080 98 8b 50 3c 27 5a 7e ba 61 e6 85 bd 3c 8c e5 bc
       0.012728594 -0.0009702765 -0.06538082 -0.02802097
000090 c4 e8 91 bd 29 1b 9f 3d 70 35 39 ba 81 6b 34 be
       -0.07124475 0.07768852 -0.0007065153 -0.17619134
0000a0 82 1c a8 3d fe 0d 26 3d 2e b7 ba bd f7 46 38 be
       0.082085624 0.040540688 -0.0911697 -0.17995821
0000b0 d1 59 56 bd 98 7d 38 3e 27 39 ae 3d 9a 94 92 bd
       -0.05233175 0.1801666 0.08506995 -0.0715725
0000c0 90 32 fe 3c ab bf 57 bd dc 36 d5 bd e5 fc 8e 3d
       0.03102997 -0.052673023 -0.10410854 0.069818296
0000d0 65 1b 7e 3c 61 06 9d 3d 9e af 18 3e 1d 3f b9 3d
       0.015509461 0.07667232 0.14910743 0.09045241
0000e0 5f 8b 9f 3c 75 e0 4a 3b 7d 28 8a 3d 6c c8 74 bd
       0.019475637 0.003095654 0.06746004 -0.05976145
0000f0 39 12 a6 bd 9e f8 0a 3e 0c 50 56 3d f2 83 9a 3d
       -0.081089444 0.13571402 0.052322432 0.07544698
000100 b9 97 01 3e ae ed d9 bd c4 4b 28 bc ea 59 03 bd
       0.12655534 -0.10641037 -0.01027197 -0.03206817
000110 9d 00 40 bd 9b 5b 48 bd 2b 56 11 bd 2b 6e 0b bd
       -0.046875585 -0.048915487 -0.035482567 -0.03404061
000120 93 bc b6 bd 30 ad f0 bb e8 17 06 be 3c 90 b0 bd
       -0.089226864 -0.0073448643 -0.13095057 -0.086212605
000130 88 38 02 bd ee 50 2a bd 2e ea 3a 3e 5f 67 ed bd
       -0.031792194 -0.041581087 0.18253395 -0.11591982
000140 01 80 f3 bd 78 27 6d bd 1f 0f c9 bd 0d dc 27 3d
       -0.11889649 -0.05789897 -0.09817337 0.04098134
000150 38 36 6f 3d f3 b2 45 3c 3d 42 be 3d f8 9c 6f bd
       0.058401316 0.012066591 0.09289978 -0.058499306
000160 47 77 a0 3d 6a d4 59 3c f8 ce ca 3d b7 ff 10 bc
       0.0783525 0.013295272 0.099027574 -0.00885003
000170 d4 95 f4 3b a6 40 3d bd b5 28 36 3c 5e 27 01 be
       0.00746415 -0.04620423 0.011118104 -0.12612674
000180 cf 12 91 be 85 72 bf ba d4 d8 1b 3e b5 95 d4 3c
       -0.28334662 -0.0014606273 0.15219432 0.025950292
000190 f7 44 66 be ca 7d a9 bd 70 35 1f be 16 f7 1f be
       -0.22487246 -0.082759455 -0.15547729 -0.156216
0001a0 44 f4 a8 3c 7c 9e a9 3d a0 a3 93 be 38 04 a9 bd
       0.020624287 0.082821816 -0.28835773 -0.08252758
0001b0 84 8b b2 3d e7 57 a0 3d d5 01 3b bd ab e8 a8 bc
       0.08718017 0.07829266 -0.045656044 -0.020618757
0001c0 2d be 4d 3d 2e 42 15 3e 37 7b a9 bd d3 e8 9c 3d
       0.050230194 0.14576027 -0.082754545 0.07661595
0001d0 a5 e4 1b bb 6f b2 19 bd 78 a5 07 bd e2 8c e4 3d
       -0.0023787406 -0.037523683 -0.033116788 0.11159684
0001e0 67 0f 13 bd 6a 2e 91 bd a8 9c 3d 3d 00 fb 38 be
       -0.03590336 -0.07088931 0.046291977 -0.18064499
0001f0 ad 7c 63 bd ba 62 a0 3d 68 23 46 bc a4 eb 89 bb
       -0.055538822 0.078313306 -0.012093402 -0.0042089988
000200 ed 31 89 bc 18 94 4e 3d ac 53 aa bc 84 b4 02 3d
       -0.01674744 0.050434202 -0.020791851 0.031910434
000210 ee ad b4 3d 14 ad 38 3d 48 bf 63 bd 29 71 4e bc
       0.08822237 0.045086935 -0.055602342 -0.012600222
000220 08 2e 25 bd 8e 55 b5 bb 36 bb 38 3d 13 61 05 bc
       -0.040327102 -0.0055338806 0.045100413 -0.00814082
000230 f0 ac 1d 3e 39 52 2d 3d a1 ec 9d 3d 6c 22 ef 3d
       0.15398002 0.04231474 0.07711149 0.11676487
000240 75 93 6c 3c ec 0e 28 bd 5c 7a da 3d e7 11 10 3c
       0.014439453 -0.041029856 0.106678694 0.008793331
000250 7f 3c 11 bd 58 1d c2 3d b8 de 94 3d c8 e1 26 3c
       -0.035458084 0.09478253 0.07269043 0.010185666
000260 81 46 c1 3c 77 28 11 3e dc 4a 78 3e ec 17 9d bd
       0.02359319 0.14175592 0.24247307 -0.07670578
000270 e8 a3 ac ba 42 26 0a 3d 33 65 26 3e 7f d9 bb 3c
       -0.0013171406 0.03372789 0.16249542 0.022930859
000280 4f 47 31 3d 10 36 b2 3c 67 f7 23 bd 24 47 f5 3d
       0.043280896 0.021754295 -0.040030863 0.119764596
000290 9b 26 de 3d a2 1b c4 bd f2 ba 09 3d 3c 42 a2 bd
       0.10847207 -0.09575583 0.03362555 -0.079227895
0002a0 71 8c e1 3c ee 85 94 3d 58 b8 4b 3c e3 7b dd bc
       0.027532788 0.072521076 0.012434088 -0.027036613
0002b0 21 4d 8a 3c b0 df 72 be 14 67 53 bd a7 8d 8b 3d
       0.016882481 -0.23718143 -0.051611975 0.068141274
0002c0 39 db ac 3d 01 72 5c 3d ab d3 0d 3d a7 8b dd 3c
       0.08440251 0.05381966 0.03462569 0.02704413
0002d0 2a e0 cc 3d b7 42 5b 3d f9 ac 36 3d b7 51 45 bd
       0.100036934 0.05353042 0.044598553 -0.048173632
0002e0 dd 68 18 3e dd 11 66 bc 6a 64 c4 bd 90 cc b2 3d
       0.14883752 -0.014042345 -0.09589465 0.087304235
0002f0 c3 10 17 be c8 0d c3 bd 4f ed 09 bd 73 18 21 3c
       -0.14752488 -0.09524113 -0.03367358 0.009832489
000300 99 30 fe b9 71 7d 3f be 21 20 05 3e 79 14 13 3e
       -0.00048482863 -0.18700196 0.13000537 0.14363278
000310 13 47 fd 3b 42 71 09 3d 84 9e 57 3e cb 3d 1a be
       0.00772942 0.033555277 0.21056563 -0.15062635
000320 97 e2 61 3d ba 03 17 bd 44 81 73 bd 06 8d 0a bc
       0.055147734 -0.03686879 -0.05944945 -0.008456474
000330 05 40 69 3d d6 5f d4 3d 31 15 85 be 50 7c 9d ba
       0.05694582 0.10369842 -0.2599273 -0.0012015197
000340 b5 b2 aa 3c f7 28 ca bd 0f 39 0f bd d1 b4 71 3c
       0.020837167 -0.09871095 -0.034966525 0.014752583
000350 f7 ed 22 be 74 5e bf 3d 41 ba a7 bd df e5 7b 3a
       -0.15911089 0.093441874 -0.08189822 0.00096091436
000360 3a 0f 74 bc 46 57 0b 3d 82 05 cb bc 56 8b 5c bd
       -0.014896208 0.034018777 -0.0247829 -0.05384382
000370 24 20 15 3d fe 36 09 bd 3b 4b a6 bd 52 a1 1c bd
       0.036407605 -0.03349971 -0.08119818 -0.038239785
000380 59 61 b8 3c 4c 7c ff bd 01 36 6d bd 1b 08 9c bd
       0.022507356 -0.124748796 -0.05791283 -0.076187335
000390 ae a0 b2 3d f3 89 50 3d cb 4e 13 3e c8 43 0b 3e
       0.087220535 0.05091281 0.14385526 0.13600075
0003a0 c8 a5 9f bd 64 7c f1 bc 6a 9d 8e 3d b2 5b 3b bc
       -0.07795292 -0.02947826 0.06963618 -0.011435436
0003b0 26 b2 d2 bd 56 1e 3e 3c 21 8f a9 bc e0 c9 43 3d
       -0.10287885 0.011603912 -0.020698132 0.047799945
0003c0 fb 80 dc bc 2a c5 9b bc b4 bb 0e 3e b3 f1 8b 3d
       -0.026916971 -0.019014914 0.1393879 0.0683321
0003d0 3e 28 ba 3c 09 e5 f3 bd f4 b1 33 bd 21 4d 9c 3d
       0.022724267 -0.11908919 -0.04387088 0.07631899
0003e0 80 cd 0f bd 68 6c 20 3e 69 1e 61 be 43 8d 31 bd
       -0.03510809 0.15666354 -0.21984257 -0.04334761
0003f0 40 65 82 bb c4 51 a6 bc ea 24 8e bc dd c8 a0 3d
       -0.003979355 -0.02030266 -0.017351586 0.07850812

h2.bias f4 [128]
000000 4f a2 9a 3d 68 ae 9c 3c ae 8a 08 3c 96 75 88 3c
       0.07550489 0.019126132 0.008333845 0.016657632
000010 94 9d 8d 3d a4 5b 99 3c 83 92 22 3d b7 c4 95 bd
       0.06914821 0.018720455 0.039690506 -0.07312911
000020 58 88 22 bd 32 88 60 bd 31 36 b4 bd 04 ca fb bd
       -0.03968081 -0.054817386 -0.08799399 -0.12294391
000030 c6 3f ab 3d e8 45 88 bd 07 7a 9f bc c5 6f fd bc
       0.08361773 -0.066539586 -0.019467367 -0.030937085
000040 4e 75 80 3d d8 b2 fb bd 0f c2 b4 bc 75 5c 83 3d
       0.06272374 -0.12289971 -0.02206519 0.06414119
000050 a4 b0 73 3d 8c 77 01 3e 84 07 a4 bd b5 a2 8e bd
       0.05949463 0.1264326 -0.08009246 -0.06964628
000060 82 a4 ac bc 92 92 2e bd 2e ab 48 bd c2 75 26 3c
       -0.021074537 -0.04262025 -0.048991375 0.010159912
000070 a6 f9 a5 3d c3 cf 6e 3d ea 6c 96 3c f8 46 2d bd
       0.08104257 0.058303606 0.018362481 -0.04230401
000080 70 eb 6c 3d ea 0b 79 3d ea 19 9e bd 33 ff d3 3c
       0.05784172 0.060802378 -0.077197865 0.025878524
000090 dc 1c 82 3d 6c e1 52 3d 36 32 ab bc ed 8a ae 3d
       0.06353161 0.05148451 -0.020897966 0.08522592
0000a0 63 37 b9 3d 06 36 04 bd 84 87 ec 3c 6d fc 4a bd
       0.09043767 -0.032278083 0.028873213 -0.04955714
0000b0 25 b6 3d 3d 3f 7d 3d bc 95 c8 9f 3d 01 f4 3e 3c
       0.046316285 -0.0115655055 0.0780193 0.011654855
0000c0 30 68 d2 bc 05 d9 97 bc 43 57 9c bd 4e e8 cb bd
       -0.025684446 -0.0185361 -0.07633831 -0.09956418
0000d0 f0 ca b5 3d 19 d8 04 3c 48 95 22 bd d8 67 c0 3d
       0.08876598 0.008108162 -0.039693147 0.093948066
0000e0 69 c9 21 bd 79 81 49 bd 3f 67 24 bd 5e 59 0a bd
       -0.03949872 -0.04919574 -0.040137526 -0.033776633
0000f0 e5 c9 ac bd f7 d1 0b bd 8e 0a 11 bd ed ae d8 bb
       -0.08436946 -0.034135785 -0.035410456 -0.0066126497
000100 08 df 0b 3d 4a 7f 99 3c 6f 10 bb bc be 6a 0e 3c
       0.034148246 0.018737454 -0.022834985 0.0086924415
000110 2e c9 81 3d 71 9c 9d 39 0d 84 a7 3d 3b b4 91 3d
       0.063372 0.00030061931 0.081794836 0.07114454
000120 d0 9a d6 bb 94 07 be 3c 48 15 7c bd f4 75 8e 3c
       -0.006549217 0.023196973 -0.061543733 0.017390229
000130 7e 99 5c bc 9c 99 4f 3c 5e 93 f3 bb 8f 66 2b 3d
       -0.01346433 0.012670901 -0.007433339 0.041845854
000140 f9 ba bd 3c 44 c2 98 bd 2b 40 c4 3c 60 9c 92 3d
       0.023160445 -0.07458928 0.023956379 0.071587324
000150 31 08 72 3d 5f c2 55 ba 32 fa 32 bd b0 ac 18 bd
       0.059089843 -0.0008154269 -0.043695636 -0.037274063
000160 81 4b 27 3e e6 3f 42 3d 1e 85 6b bd 33 0f 83 3c
       0.16337396 0.04742422 -0.057499997 0.015998458
000170 7c 19 ee 3d 04 7e 08 bd cc 84 a1 bc 09 59 b5 3d
       0.116259545 -0.033323303 -0.019716643 0.08854873
000180 31 d9 21 3d b8 aa 18 3d 11 38 bd 3d 74 5a d9 3c
       0.03951377 0.037272185 0.092392094 0.02653239
000190 60 0c 14 bc 45 ff dc bd 43 89 34 3d 28 7e 7b bd
       -0.009036154 -0.10790876 0.044076215 -0.06139961
0001a0 63 e9 9c ba 2f e8 10 bd e5 3d 7c 3b c5 ec f6 3d
       -0.001197141 -0.035377678 0.003848904 0.12056879
0001b0 2c 91 ca bd f4 a8 c3 3c 07 55 8d 3d 5a 7e f0 bc
       -0.098909706 0.023884274 0.06900983 -0.029357124
0001c0 c7 62 78 3d 15 3e b1 3d cb 09 0e 3c 65 2d aa 3b
       0.060641076 0.08654419 0.008669327 0.0051933997
0001d0 1a 91 c5 3c b5 66 a8 3d bf 9e 8b bc da 9d d5 3d
       0.024117041 0.08222715 -0.01704347 0.104304984
0001e0 e3 17 87 bd ee e8 63 3d fc 6a f7 3c 16 47 6d 3d
       -0.06596353 0.05564206 0.030202381 0.05792912
0001f0 2b 65 1b 3c 45 9a 13 bd 47 8c 77 3c 43 54 a3 3d
       0.00948457 -0.036035795 0.015109128 0.07975056

out.weight f4 [2, 128]
000000 32 b8 7c 3d a4 6b b6 bd f7 28 bd bd 69 70 4e 3e
       0.0616991 -0.089072496 -0.09236329 0.20160069
000010 ad 1e 17 be d1 5b 53 bd fd 25 8b be ad 31 0f be
       -0.14757796 -0.051601235 -0.2717742 -0.13983794
000020 95 e9 4a 3c 86 fd cb 3d 33 3e f7 bd 69 e1 26 be
       0.012384792 0.09960465 -0.120724104 -0.16296925
000030 dd 5e 25 3e c9 bc bc bd 3d 45 22 3e 6c 0c 01 be
       0.16149469 -0.092156954 0.15846725 -0.12602395
000040 f6 0f a7 3d 96 27 ab bc ae 0a b5 be 65 56 20 3e
       0.08157341 -0.0208929 -0.3535971 0.15657957
000050 6a 73 65 3d 4c 9e c0 bc 8b e3 d7 bd a0 7b f5 3d
       0.05601827 -0.023512982 -0.10541447 0.1198647
000060 7b bf fb 3d 15 82 58 be ce db 3f be 6c 6e 4b be
       0.122923814 -0.21143372 -0.18736193 -0.19866341
000070 43 92 29 3e 40 72 ab bd e9 be 47 3e e4 e9 a7 3d
       0.165597 -0.08371401 0.1950642 0.08198908
000080 2c ec dd bd ec 88 cf bd 3a 90 8a 3e b0 36 09 3d
       -0.10836062 -0.10133538 0.2706316 0.03349942
000090 73 2f 4b be a2 4b 12 be 5b b4 9e 3d 70 9b ae bc
       -0.19842319 -0.14286664 0.07749244 -0.021314353
0000a0 d1 98 dd bd fc 44 8d 3e 79 38 a5 bd ce 78 aa bd
       -0.10820163 0.27591693 -0.08067412 -0.08323823
0000b0 b0 20 4c bd 9a 4c 28 3e be 53 91 3d 80 11 fc bd
       -0.04983586 0.16435471 0.07096051 -0.12308025
0000c0 bd 89 07 be 9f df fb 3d 8c df b2 3a ea 2c 04 be
       -0.13236137 0.12298512 0.0013646944 -0.12907758
0000d0 84 9b 84 3e cd aa 0b bd 38 ea 12 be 70 a0 0a 3e
       0.258999 -0.034098435 -0.1434716 0.13537765
0000e0 9b 00 69 3e 55 db 7b 3e b0 93 c9 3d cc 28 8b 3e
       0.22754137 0.24595387 0.09842622 0.27179563
0000f0 29 de 7d bd 69 66 71 be a7 e5 86 3e 1b 7f bd bd
       -0.061979447 -0.23574223 0.26347086 -0.09252759
000100 aa f7 60 3e 64 b1 40 3e d5 56 91 bd 26 ae a9 3d
       0.21969476 0.18817669 -0.0709664 0.08285169
000110 62 7e 13 3e c2 40 89 bd e0 ce 03 bd e2 ac 0b 3e
       0.1440368 -0.06701805 -0.032179713 0.13640168
000120 d0 d0 1a be 40 dd 98 3d ae 9a 0a 3e 43 87 12 3e
       -0.15118718 0.07464075 0.13535568 0.14309411
000130 d5 1e 63 bd 13 cc 13 be 84 a7 32 3e dd 8b c0 bd
       -0.055449326 -0.14433317 0.17446715 -0.09401677
000140 6d 5d 08 3c f2 82 81 bd 4d f1 de 3d 27 b6 fd 3d
       0.008323056 -0.06323804 0.10885868 0.123882584
000150 d7 cb 7c 3e 38 16 6e 3e 52 bd 9c 3d e7 af 06 be
       0.24687134 0.23250663 0.076532975 -0.13153039
000160 bb 5c 87 3e 48 3c 13 bd 69 4d e0 bd e8 76 3d bd
       0.26437935 -0.03594616 -0.10952265 -0.046255976
000170 11 74 fc 3d 63 99 fa 3d 06 51 a9 bd 54 db b4 bd
       0.123268254 0.122362874 -0.08267407 -0.08830896
000180 87 43 0f be 0e e4 7f bd 10 69 f9 3d 0a 5b 10 be
       -0.13990603 -0.06247335 0.12178242 -0.14097229
000190 c1 f4 d7 3d cd 3c 45 3e 36 3e b1 3d c7 fa ab bd
       0.1054473 0.19261475 0.08654444 -0.08397441
0001a0 53 ec 2e be d7 74 8e bd 7b 99 6c bd 95 62 cf 3c
       -0.17082338 -0.06955879 -0.057763558 0.025315562
0001b0 ec 3e e7 bd dd b8 43 be 4a 0e bf 3d a6 a4 22 3d
       -0.11291298 -0.19113488 0.09328897 0.039707802
0001c0 3a f3 0a 3e c0 b9 41 bc 94 aa ed bc 18 fb e8 bd
       0.13569346 -0.011824071 -0.029012002 -0.11376017
0001d0 ad 58 04 3e 4e d5 3d 3e d0 91 35 be e4 72 72 3d
       0.12924452 0.185384 -0.17731404 0.0591916
0001e0 8d 02 dd 3c 32 3c 5a be b6 4e 91 be 23 3b 94 3d
       0.026978755 -0.21312025 -0.28380364 0.07237842
0001f0 4d 77 2a 3d 26 81 d6 3d 3c 05 ea 3c b4 a7 d7 3d
       0.04161768 0.10473852 0.02856695 0.10530034
000200 0c 42 e2 3d 40 be 18 3d 01 85 55 3d e6 f2 8b 3b
       0.11047754 0.03729081 0.052128796 0.004270899
000210 a7 09 84 bd a5 73 e1 bd 36 1b 25 bb 26 d5 8f bc
       -0.064471535 -0.110083856 -0.002519322 -0.017557692
000220 c3 f7 97 3e 95 91 0b 3d 55 0f 67 be 09 8c 89 3c
       0.29681215 0.034074385 -0.22564442 0.016790407
000230 27 51 3c be 64 ab f3 bb e1 2a 53 be 49 d2 3e bd
       -0.18390332 -0.007436203 -0.20621826 -0.046587262
000240 37 e0 2c 3e c0 97 2f 3e bc 74 99 3d 5d ad 06 3e
       0.16882406 0.17147732 0.074929684 0.1315207
000250 36 7d 59 3e d5 b6 9b 3e 98 e6 98 bd 7e 96 49 3d
       0.2123917 0.30412927 -0.07465857 0.049215786
000260 da c6 8f be 33 dc 44 3d 20 3f 5b bd ce 0c c9 3d
       -0.280814 0.04806156 -0.053526998 0.098168954
000270 7e ae 9a bd dc 5c 5a 3c 2c 92 18 be e4 3f 5a 3e
       -0.07552813 0.013327803 -0.1489951 0.21313435
000280 d5 6d 8b bc 07 95 0b be 8a d2 61 be fe 18 92 3e
       -0.017020145 -0.13631068 -0.2205297 0.28534693
000290 ae 93 a1 bd ab a3 fe bd c8 7b a6 3e bc e1 66 be
       -0.07889496 -0.12433561 0.32516313 -0.22547048
0002a0 33 35 15 3c 05 85 76 3e 94 5f ee bd f1 67 a1 3d
       0.009106922 0.2407418 -0.11639324 0.078811534
0002b0 de 2c ee bd 8f 69 86 bd 38 75 90 3e 92 ec ec bc
       -0.116296515 -0.065631025 0.2821443 -0.0289214
0002c0 e9 57 c4 3c 92 18 5f 3d 97 54 a3 3e a5 cb e2 bd
       0.0239677 0.05446679 0.31900474 -0.11073998
0002d0 e8 0d 0b bd 7c 00 98 be 31 50 2f bd 13 86 39 3e
       -0.03394881 -0.2968787 -0.042801086 0.18117552
0002e0 6f 53 c3 bd bc f3 b4 3e a8 54 9b 3c d3 06 2a 3d
       -0.09537398 0.35342205 0.018961266 0.041510414
0002f0 70 4b d3 bc 6d 1d 8a be 3a f3 09 be 82 59 50 be
       -0.025792807 -0.26975575 -0.1347169 -0.20346645
000300 fe 17 3f be 1b 57 77 be fd 07 02 3d 4b 6e 4b be
       -0.18661496 -0.24154322 0.0317459 -0.19866292
000310 60 d9 83 3d 7e cd 87 bd 7d 44 a2 3e 00 41 95 3d
       0.06437945 -0.066309914 0.31692877 0.072877884
000320 fd de 40 bd 01 4f 6f be e5 a3 fe bd c0 6e f3 bd
       -0.04708766 -0.23369981 -0.12433604 -0.11886358
000330 f5 14 d0 bd 98 a5 18 3d 48 8e 96 3d f2 50 8d 3d
       -0.10160247 0.037267298 0.07351357 0.06900205
000340 03 68 c4 3e 11 a6 20 3e 84 00 18 3e b4 c8 6f 3d
       0.38360605 0.1568835 0.14843947 0.058541015
000350 9e b9 b2 bd 1f d6 9d be 6d ad 44 3e 48 ee 46 be
       -0.0872681 -0.30827424 0.19206782 -0.19426835
000360 34 41 01 3e 12 45 7c 3e 6d cb 96 be ad bc 04 3e
       0.1262253 0.24635723 -0.29452077 0.12962599
000370 1d 75 47 be a7 0b 21 3e 4c 64 7a 3b db 2d bc bd
       -0.19478269 0.15727101 0.0038206754 -0.09188434
000380 85 2c d5 3c d0 6b 95 bd 46 06 c0 bd 60 53 20 3d
       0.026022205 -0.07295954 -0.093761966 0.039142013
000390 b4 92 06 3e f4 f6 32 3e 32 76 86 3e ad 1b 4a 3e
       0.131419 0.17477018 0.2626205 0.1973712
0003a0 b9 81 54 3e 9e 01 66 3d a6 92 04 be 39 11 b4 bd
       0.2075261 0.056153886 -0.12946567 -0.087923475
0003b0 57 42 da bb 5f f6 22 3e 55 23 b3 3d 3a aa 92 be
       -0.0066607404 0.15914296 0.087469734 -0.28645498
0003c0 48 99 df 3d 26 fb 71 3e 85 99 db bd 9b 6b 1c 3d
       0.10917908 0.23630962 -0.10722641 0.038188558
0003d0 39 20 fb bd ce 57 c7 bc a6 7b 0a bb 73 9e 78 bd
       -0.12262005 -0.02433386 -0.002113083 -0.060697984
0003e0 59 82 52 3e 02 e5 d1 bd 7b cf 9f be ed 09 ec 3d
       0.20557536 -0.10248758 -0.31212983 0.11525331
0003f0 5f 77 f4 bd 84 e2 80 bd 8f a4 76 3e 34 79 43 3e
       -0.11936831 -0.062932044 0.24086212 0.19089204

out.bias f4 [2]
000000 01 59 60 3d 18 b4 25 3c
       0.05477238 0.0101137385
