p2_continuous-control/checkpoints/checkpoint.pth (torch, 58617 bytes, 6 tensors)

h1.weight f4 [100, 33]
000000 3a c1 b1 3e a5 3d 42 3c 05 70 7e 3e 76 b1 08 be
       0.34717733 0.0118555175 0.2484742 -0.13348946
000010 17 5c 7c be 60 9e b8 bd 9a 8f 3b 3e 35 1b db 3c
       -0.24644504 -0.09014583 0.18316498 0.026746372
000020 de da 8d bd 50 76 3f 3e 38 57 8c 3d 4f a3 2b bd
       -0.06926511 0.18697476 0.06852573 -0.04190379
000030 31 d7 00 3d a9 84 6c be 89 f7 80 be f7 ac 28 be
       0.031455223 -0.23097481 -0.25188854 -0.16472231
000040 1e f2 66 3e f8 2e 71 3d 3f af 11 be de 37 ef bd
       0.22553298 0.058882684 -0.14227007 -0.11680578
000050 34 98 96 bd 6e 75 c7 bc b1 97 9e 3c 6d 33 26 bd
       -0.07353249 -0.024347987 0.019359441 -0.040576387
000060 49 fb 90 bd c4 83 a6 bc d0 31 ad 3d 14 a8 2c be
       -0.07079179 -0.020326503 0.084567666 -0.16860992
000070 41 30 22 be 81 05 dc 3d d7 8f 78 3e 19 d8 d6 bc
       -0.1583872 0.10743237 0.2427362 -0.02622609
000080 2f 70 22 be 37 c5 9f bd b7 a5 56 3d 1a 39 3e 3e
       -0.15863107 -0.078012876 0.05240413 0.1857647
000090 60 bd 92 3d a4 8b 33 3e cd be c5 3c e3 1a a1 bd
       0.07165027 0.17533737 0.024138832 -0.07866456
0000a0 2d 84 91 3d 49 1f 82 bd e4 86 01 be 8c b3 a1 bd
       0.07105289 -0.063536234 -0.12649113 -0.07895574
0000b0 67 46 03 3d 46 33 5a 3a 71 16 80 bd e5 05 9e 3c
       0.032049563 0.00083236804 -0.0625428 0.01928992
0000c0 8e 48 2c bd 9a 45 ae bc 41 e8 00 be 5e 05 35 be
       -0.04206138 -0.021273423 -0.12588598 -0.17677829
0000d0 d6 f0 dc bc c9 88 e2 bc b6 4b 76 3d f5 6a 0b 3e
       -0.026970308 -0.027653115 0.060130797 0.1361502
0000e0 3c 85 7e bc 15 86 23 3e 75 ab 23 3e 5c 59 63 be
       -0.015534695 0.15969117 0.15983374 -0.22202057
0000f0 83 4f 9e be 28 e3 1a 3e 3a ae ee 3d 64 95 4e 3e
       -0.30920038 0.15125716 0.11654325 0.20174176
000100 48 64 28 be a7 6a 40 bd 92 36 68 be cb ef 62 3b
       -0.16444504 -0.04697671 -0.22677067 0.003462779
000110 85 d5 ce bd f5 3a 09 3e 46 54 8d 3e 30 f6 2b be
       -0.10099319 0.13401397 0.27603358 -0.16793132
000120 26 a5 bd 3d 99 d3 9c 3c 38 09 02 bc ec 8f 11 3e
       0.09260015 0.019143866 -0.007936768 0.14215058
000130 ba a8 8e 3d a4 e6 e6 3d 4e bc f4 3c 57 e2 0b 3e
       0.06965776 0.1127446 0.029874947 0.1366056
000140 19 df 2a bd a2 7a ba 3d c8 1b 0e 3e 2b c3 5f bd
       -0.04171667 0.091054216 0.13877785 -0.054629486
000150 f8 8b 7e 3d 64 eb e3 3d a3 ce 64 3b 2b 97 e2 3d
       0.062145203 0.111288816 0.0034913204 0.11063989
000160 cf c1 3f be 7b 42 ed 3c d8 e9 b5 bd e3 ca 3b bc
       -0.18726276 0.028962364 -0.08882493 -0.011461946
000170 89 11 5c 3e 04 18 94 be 12 4b 38 3e 37 22 07 3e
       0.21491064 -0.28924572 0.17997387 0.13196646
000180 a8 87 fb 3d 27 a4 3e 3c 94 66 25 bf 53 55 41 3e
       0.12281734 0.011635817 -0.64609647 0.18880205
000190 31 7d 8d be d2 76 fa bd 60 57 db 3c c5 24 7f be
       -0.27634576 -0.122296944 0.026775062 -0.2491637
0001a0 c5 47 3c 3e 62 34 0c be 2b 4e dc bc 75 7c fa bb
       0.18386753 -0.13691857 -0.026892742 -0.007644231
0001b0 73 77 87 3c e8 ad 46 3e 0f 6e d8 bd 41 b9 6f bd
       0.01653645 0.19402277 -0.10567867 -0.05852628
0001c0 77 fe 88 be 72 c3 96 be 10 46 b1 3d c9 b3 45 be
       -0.2675664 -0.29445988 0.086559415 -0.19306864
0001d0 86 6c 25 be b6 e4 18 3e fa ef d0 bd ff 1e a7 bd
       -0.1615468 0.14930996 -0.10202022 -0.08160209
0001e0 9f c0 eb ba 7e fd 03 be 14 21 3c bd 0e 0c 82 bd
       -0.0017986483 -0.12889668 -0.045929983 -0.063499555
0001f0 4c 3d 9c bc 23 2b 4b 3e 62 18 4c be 52 80 83 bd
       -0.019072197 0.19840674 -0.19931176 -0.064209595
000200 58 24 de bc f9 66 f6 3d 2e df 6e 3d c6 ab 0e 3d
       -0.02711694 0.12031359 0.05831831 0.034831785
000210 70 95 82 3e 95 4a a8 3e 7b b0 3b be 51 32 25 3e
       0.25504637 0.32869402 -0.1832904 0.16132475
000220 35 63 05 bc e7 09 41 3e 56 a3 08 be 1e cf da bc
       -0.008141329 0.18851434 -0.13343558 -0.02671009
000230 7c 8a 22 be 73 fd 75 3e 89 67 eb 3c ba 24 87 3e
       -0.1587314 0.24022464 0.028735893 0.26395208
000240 b5 ad 4f 3c d3 b9 67 bc fb 7a 13 be 56 20 70 bc
       0.012675692 -0.014143425 -0.14402382 -0.014656147
000250 d4 17 a6 bd a6 ca bc 3d c8 49 f4 bd 4e 5f b1 3d
       -0.081100136 0.092183396 -0.11928135 0.08660756
000260 df 9c 4e 3d 83 6b a9 3d 59 b3 61 bd 46 4f ba 3b
       0.050442573 0.08272459 -0.05510268 0.0056857197
000270 dc 8a cf bd 8c 02 59 bd d4 95 1c be ab fe e1 be
       -0.10133907 -0.052980945 -0.1529153 -0.4413961
000280 e6 e7 69 bd 4a 1a b2 bd 5d 77 a9 3e 67 6d 08 3e
       -0.05710592 -0.086964205 0.3309888 0.13322984
000290 01 66 4a 3f 6a 11 36 be 2c 3c d6 3e 7a ba 8c 3e
       0.79061896 -0.1778008 0.41842782 0.2748602
0002a0 c0 fe c2 be f5 1d 95 3e fe 26 75 be 93 c2 4d 3d
       -0.38084984 0.29124418 -0.23940656 0.05023439
0002b0 da cd 80 3d 84 da 22 3e de 68 81 3d 93 fb 01 be
       0.06289263 0.1590367 0.0631883 -0.12693624
0002c0 1f 76 95 3e 67 3a 16 3e 12 f0 f3 3d 55 80 b8 bd
       0.29191682 0.14670716 0.11911024 -0.090088524
0002d0 ec 8a b1 3d d8 7e a3 bd 22 bf 93 3d 3c f7 e0 bd
       0.08669075 -0.07983178 0.0721419 -0.10984656
0002e0 7c 6a 59 3e 35 52 02 be 4e b6 da 3d b2 f6 9c bd
       0.21232027 -0.12726672 0.10679303 -0.07664241
0002f0 9a 7a 8a be 1d 1a a3 bc e5 e9 51 3e 0a 03 99 bd
       -0.27046663 -0.019909913 0.2049938 -0.07471283
000300 62 91 37 be 10 1e 33 be de 82 cf 3d 40 b7 70 bd
       -0.17926553 -0.17491937 0.10132383 -0.05876851
000310 fb 3c 18 be a8 2a a8 bc de 07 28 be b5 65 ce 3d
       -0.14867012 -0.020528153 -0.16409251 0.10077993
000320 e0 a0 3e be fa b7 41 3e 91 74 89 3e ad cd b0 3d
       -0.18616056 0.18917838 0.26846746 0.086329795
000330 9e 7c 32 3e 3c af 11 bb 57 f8 47 be 1c b1 cd bd
       0.1743035 -0.0022229692 -0.19528328 -0.100435466
000340 74 d8 53 bd 4d 1a 07 bd 88 10 a1 3d 45 20 ff 3d
       -0.051720098 -0.032984067 0.07864481 0.12457327
000350 5e a5 64 3e 11 0e 27 3e ec 07 85 3d 34 09 5f bd
       0.22328708 0.1631396 0.064956516 -0.054452136
000360 2d 35 90 3d 25 2d de 3d 57 89 01 be 11 10 eb bb
       0.070413925 0.108484544 -0.12650047 -0.007173546
000370 71 48 56 bc 25 f9 23 bd b9 84 46 bd 8d 6c 9e 3e
       -0.013078795 -0.040032525 -0.048466418 0.30942193
000380 f4 db 97 bd 89 51 05 be cc 92 36 be 05 e3 fe 3d
       -0.074149996 -0.13019384 -0.17829436 0.12445644
000390 0b 8e 95 bc f3 df 84 bc a1 06 79 3f 62 7d 26 be
       -0.018256208 -0.016220069 0.9727574 -0.16258767
0003a0 d0 f4 2d be c4 02 e9 3e 20 43 52 be cd fc 7b 3d
       -0.1698792 0.45509923 -0.20533419 0.061520386
0003b0 70 d7 7b bc fb 0b ab bc 66 c8 60 bd 71 34 8b 3e
       -0.0153711885 -0.020879736 -0.054878615 0.27188447
0003c0 f7 38 36 3d 90 c8 85 bd ed 64 aa bc 98 c2 28 bd
       0.04448792 -0.06532395 -0.020800078 -0.041201204
0003d0 98 34 51 bd 5c 53 f0 bd 56 a7 bf bd 53 63 2a 3e
       -0.051075548 -0.117346495 -0.09358089 0.16639452
0003e0 03 20 1a be 6d 08 9b 3d d3 f1 d7 bd 34 98 08 3e
       -0.15051274 0.075699665 -0.10544171 0.13339311
0003f0 90 23 52 3c 27 e0 28 3e aa 93 5d bd 64 5e 24 be
       0.012825862 0.16491757 -0.0540959 -0.16051632

h1.bias f4 [100]
000000 88 c1 86 3e b7 cb f5 3d e7 d5 8f 3c 47 1c b6 3d
       0.26319528 0.12001746 0.017558051 0.08892112
000010 fa 8a 14 3e 51 9a dc bd a4 62 0b 3e c9 ad e6 3d
       0.1450614 -0.10771621 0.13611847 0.11263616
000020 ef 2c 02 3e fd c6 4a bd c2 0b ec 3c 24 27 64 bd
       0.12712453 -0.049506176 0.0288142 -0.05570139
000030 d0 17 89 3e 94 8a b9 3e a8 11 ce bb f5 4f 25 bd
       0.2677598 0.3623854 -0.006288726 -0.040359456
000040 b1 99 fb 3d b8 19 2e 3e 01 36 47 be 4e b8 e9 3d
       0.12285174 0.17001998 -0.19454195 0.114121065
000050 76 1b 2d 3e 75 c8 10 3e d3 0d 12 be aa d2 36 3e
       0.16905007 0.14138968 -0.14263086 0.178538
000060 98 bb 6e 3e 30 6f 4a bd 8e 6c f8 3c 40 70 a3 3e
       0.23313749 -0.049422443 0.0303252 0.31921577
000070 07 e8 e3 3d cb 82 c1 3e 6d 58 29 3d ec b3 d0 3d
       0.1112824 0.377951 0.041344095 0.101905674
000080 2f 7d bd 3e cd bf b7 3c 6c 20 20 3d 33 8e 8e 3c
       0.3700957 0.022430325 0.03909342 0.01740179
000090 86 52 ad 3e a0 8b 80 bd b4 76 a6 3e 59 86 48 3d
       0.33852023 -0.06276631 0.32512438 0.04895625
0000a0 96 3b ad 3d 72 e2 b6 3d d7 0a 79 3e 92 de 04 3e
       0.08458631 0.0892991 0.24320541 0.12975529
0000b0 59 25 b2 3d ce 62 7d bd 3d 8a 3e 3e 7d 05 c1 3e
       0.0869853 -0.061861806 0.18607421 0.376995
0000c0 e3 54 1e be a7 67 85 3e 9e c9 4c 3e 78 3a 8f 3e
       -0.15462069 0.26055643 0.19998786 0.27974296
0000d0 25 b1 4f 3e fc ba c5 bd 82 bc 90 3e 0a 3a 95 3d
       0.20282419 -0.09654805 0.2826882 0.07286461
0000e0 d1 65 4a be 5c 34 06 3e 92 8a 1c 3e 85 f2 6e 3e
       -0.19765402 0.13105911 0.15287235 0.23334701
0000f0 9c 55 5d bd c6 59 5c 3e cb 74 b1 3e 0d 06 c1 3d
       -0.05403672 0.21518621 0.34659418 0.09424982
000100 e5 73 fe 3d 8d aa 42 3e d8 00 7e bd 6e 7d 8c 3d
       0.12424449 0.19010372 -0.062012523 0.06859861
000110 21 54 8e bd 56 c0 8e 3e 92 49 c7 3e 6d aa ff 3d
       -0.0694964 0.27881116 0.38923317 0.12483678
000120 86 d8 b4 3d e9 3b d3 3d a3 b3 c2 3d ad 0f be bd
       0.08830361 0.10314161 0.09506919 -0.09280334
000130 0e 7e e3 3d 12 d6 62 3e c1 72 19 3e 68 e0 3c 3e
       0.111080274 0.22151974 0.14985181 0.18444979
000140 99 65 30 3e 2e 5c 35 3d f3 30 45 3e da aa 9d 3d
       0.17226256 0.044277363 0.19256954 0.07698603
000150 27 b8 0a 3c d3 b9 f9 bd 53 78 d6 3e da a6 9a 3d
       0.008466757 -0.12193646 0.41888675 0.07551356
000160 a8 f7 a1 bd f5 e6 61 3e e5 c3 9e 3b 9e a7 8f 3e
       -0.07908565 0.2206076 0.00484513 0.2805757
000170 46 eb c6 bd a9 8b 1e 3e 7d e7 bf bc 1d ab e2 3e
       -0.097128436 0.15482964 -0.023425812 0.44271174
000180 36 6d 94 3e 27 84 5d bd a3 89 80 3e 7a e5 5b be
       0.2898957 -0.05408111 0.25105008 -0.21474257

h2.weight f4 [100, 100]
000000 0b 48 f8 3d cd 7e fa 3c 00 b9 45 3d 1d 99 e9 3b
       0.12123116 0.030578041 0.048272133 0.007128848
000010 14 ef 5c 3e c2 93 1d bd 33 4a ad 3d 01 ad 3c 3d
       0.21575576 -0.03847099 0.08461418 0.046063427
000020 5f a8 88 bc f7 1e 37 3d 03 96 54 3d 8e 17 22 3d
       -0.016681848 0.044707265 0.051900875 0.039573245
000030 79 ae d5 3d 9a e7 39 bd 27 b4 0c 3d 1e c4 de 3b
       0.10433669 -0.045386888 0.034351494 0.0067982813
000040 b9 3c e6 bd db c0 cd bd 55 53 aa bd cb d7 71 3d
       -0.11242051 -0.1004655 -0.083166756 0.059043687
000050 53 93 8a bd e4 9c 8a 3c d1 cc be bc 8a ae 08 bc
       -0.06766381 0.016920514 -0.023291023 -0.008342395
000060 13 b4 1e 3d b3 87 25 bb 45 57 8c bd 93 64 03 3e
       0.03874595 -0.0025257885 -0.06852583 0.12831335
000070 61 c9 f0 3d 86 58 24 3e ab 7e 9a 3d b4 e9 ef 3d
       0.1175716 0.16049394 0.07543691 0.11714497
000080 94 5c 0f 3e 91 21 a4 3d 41 1a ce 3d 4f d0 a2 3d
       0.1400016 0.08014215 0.10063601 0.07949888
000090 ca 78 0a 3d 02 a2 25 3e 26 f8 8b 3d e7 5b ad 3d
       0.0338066 0.16175082 0.0683444 0.084647946
0000a0 16 e2 82 bd d3 38 23 3e 2a ae 55 3d 60 5c 49 bd
       -0.06390779 0.15939645 0.05216805 -0.04916036
0000b0 4c 65 0b be 37 32 1c 3e 23 8a 90 3d d2 de e4 bd
       -0.1361286 0.1525353 0.070575975 -0.11175312
0000c0 38 d5 a6 3e 52 56 d9 3c 24 cf f6 bc 61 f0 c6 bc
       0.32584548 0.026530419 -0.03012807 -0.024284543
0000d0 52 6b 8f bb e2 4d 8d bc 70 ec ad 3c ec b2 97 3d
       -0.0043768073 -0.017249051 0.021230906 0.074071735
0000e0 2e 98 51 be f3 f1 be bb dd 52 18 bc df 1b c4 bd
       -0.20468208 -0.0058271824 -0.0092971 -0.095756285
0000f0 4d 64 14 bd db ea 2c 3e bd 0c 89 3d 41 31 de bb
       -0.036228467 0.16886465 0.06691883 -0.006780774
000100 77 5b 72 bd c4 83 87 3d c0 b2 9c bd 97 1f 22 bd
       -0.05916926 0.06616929 -0.07651281 -0.039580908
000110 e8 2a 77 3e a8 db fa 3d 2d 91 ed 3c 6e 2f 1a bd
       0.24137461 0.12248927 0.02899989 -0.03764289
000120 e9 57 32 3d 31 01 25 3e 40 85 b0 bd 2c 07 dd 3d
       0.04354087 0.16113736 -0.086191654 0.107923836
000130 d1 e0 90 bc 40 ac 1e bd 1e 7d b3 bd 57 38 00 39
       -0.017685326 -0.03873849 -0.087640986 0.0001222802
000140 ce 5e ca bd 55 5c d8 3c 34 d8 0b 3e 9b 62 8e 3a
       -0.09881364 0.026411215 0.13656694 0.0010863127
000150 f9 69 ac 3d 67 03 0e bd d3 f7 18 3e 47 b4 16 be
       0.0841865 -0.034671213 0.14938287 -0.14717208
000160 14 cb 2b bd 73 84 7a 3b 2e 8c 97 3d e8 90 0e 3d
       -0.041941717 0.0038225919 0.07399784 0.034806162
000170 b0 c7 bd bd de 54 48 bd 37 c1 1a 3c 0c a5 63 3d
       -0.09266603 -0.04890906 0.00944548 0.055577323
000180 72 c0 09 3e 66 59 a1 bd bc 5d cb 3d 84 f7 d4 bc
       0.13452318 -0.078783795 0.09929988 -0.02599693
000190 ce 17 16 3c 5d 2e c7 3d 0e ca 9d 3c f9 59 41 3d
       0.009160949 0.0972564 0.019261386 0.047204945
0001a0 55 ba d6 bc 14 30 0f be 9a b8 fa bd b3 ed b9 3d
       -0.026211897 -0.13983184 -0.12242241 0.09078541
0001b0 38 a4 eb bd 3f 07 54 3d c8 da 80 bb d0 91 14 3d
       -0.115059316 0.051764723 -0.0039323308 0.03627187
0001c0 28 b8 4f be 66 9b 77 3d 95 97 d5 bc 05 53 88 be
       -0.20285094 0.060450934 -0.026073257 -0.2662584
0001d0 15 ab 24 be 1a 9f df bc ca 6f 89 bd b3 0a e6 3d
       -0.16080888 -0.027297545 -0.06710775 0.112325095
0001e0 bf 68 b7 3d 64 c3 96 3d 33 6d cd 3c 89 00 20 be
       0.089555256 0.073614866 0.025076484 -0.15625204
0001f0 28 33 dd 3d a3 c6 09 3e 93 17 95 bb f6 72 a9 3d
       0.10800773 0.1345468 -0.0045499294 0.0827388
000200 4b a6 f7 3d b5 07 bf 3d b7 c9 bd bd de 55 10 be
       0.12092265 0.09327642 -0.0926699 -0.14095256
000210 8e ee c8 bd 81 38 de bd b2 9c 56 3c f9 83 93 3d
       -0.09811126 -0.10850621 0.0130988825 0.07202906
000220 34 31 26 bd c7 20 71 be e9 c6 a2 bb c2 4e 48 3e
       -0.040574268 -0.2354766 -0.0049675596 0.19561294
000230 51 b1 00 3e 77 48 4c be 10 34 09 3d 56 17 ba bd
       0.12567641 -0.19949518 0.033496916 -0.09086482
000240 3b 99 c2 3b d1 ff 38 3d 96 fe a3 3d 9a 21 15 3e
       0.0059386767 0.04516584 0.08007543 0.14563599
000250 a3 b3 c8 bb 64 bf 22 be 36 66 46 3d 40 87 be 3d
       -0.00612493 -0.15893322 0.04843732 0.09303141
000260 e1 0c 50 bd 9d d1 bd bd 96 f2 35 3d 90 cd c2 3d
       -0.050793532 -0.09268496 0.0444208 0.09511864
000270 c7 4c 4a 3c ce 2c de bc 1b f4 88 bc fd ad 7c bd
       0.012347407 -0.027120974 -0.016717961 -0.061689366
000280 48 7e 9e bd 6d 1f fb 3d 31 83 a4 3d cc cd ec bd
       -0.0773893 0.12261853 0.08032835 -0.1156269
000290 53 6f 3b bf 2f 98 42 bd 8e 3d 2a 3c 87 a5 52 3c
       -0.7321674 -0.047508415 0.010390652 0.012856848
0002a0 85 81 e8 3b 38 cc e2 3c 67 c1 ea 3c d7 af 55 bd
       0.007095518 0.02768527 0.028656675 -0.052169647
0002b0 82 44 c8 3a f3 48 c9 3c 80 d0 22 be db af 0b 3e
       0.0015279206 0.024570918 -0.15899849 0.13641302
0002c0 81 4a 36 3e 7a 3c 02 bd d8 70 ce bb b8 06 e4 3d
       0.17801858 -0.031795956 -0.006300073 0.11134094
0002d0 f8 8b fb 3d 16 ab 02 3e 15 c4 99 3d 99 5f 9d 3b
       0.12282556 0.12760577 0.07508103 0.004802656
0002e0 c0 7e b3 3b f4 1c 6d 3d 2f 0e e6 3c c6 a1 bb 3d
       0.0054777563 0.05788894 0.028082935 0.09161715
0002f0 3e 07 1f bd cd a8 3a 3c 82 5e 8f 3c 5c 04 69 3e
       -0.038825266 0.011392784 0.01750112 0.22755569
000300 5f fd 74 be 79 6d 0d bd 09 dc b3 3c 64 c3 e6 bd
       -0.23924778 -0.03452823 0.021955507 -0.112677366
000310 cb 11 59 3c 5c a8 b2 bc 04 aa 96 3a d1 7a 5d bd
       0.013248871 -0.021808796 0.001149476 -0.054072205
000320 fb 36 2e be dd c2 a6 bd f1 e6 82 be e2 46 5f 3c
       -0.17013161 -0.08142636 -0.2556682 0.01362774
000330 f8 94 32 3d 32 6f 38 bd 18 73 fe bd 12 61 a6 3d
       0.0435991 -0.04502792 -0.12424296 0.081239834
000340 96 84 b9 3d f8 a7 95 3d 65 6a 31 3d 38 ab 2f 3e
       0.09058492 0.07307428 0.043314356 0.17155159
000350 f3 28 c7 bc b4 1a 86 bd 9b c2 0d be 3b df 8f bd
       -0.024311518 -0.06548062 -0.13843767 -0.07025
000360 6f 17 06 3d 0e 4c 34 be d5 91 e9 bd f3 05 13 be
       0.03273719 -0.17607138 -0.114047684 -0.14357738
000370 53 31 87 3d a1 00 97 3d 42 1e 52 3c 46 df 00 3d
       0.06601205 0.07373167 0.012824597 0.03146293
000380 e4 7d c7 3d 9f ca 5a 3e f5 2c ea bd 48 1e c3 3c
       0.097408086 0.21366356 -0.11434356 0.02381815
000390 47 9b 20 bd ad 50 3b 3e f3 77 af 3b 38 71 1f be
       -0.039210584 0.18292494 0.0053548752 -0.15570533
0003a0 be 9b 3d 3e 6b 0e e4 3c c7 08 8d 3c 4b a8 87 3d
       0.18516442 0.027838906 0.0172161 0.06623896
0003b0 25 0e f1 bd c8 57 92 3d 81 96 b6 bd d2 f7 a9 bd
       -0.11770276 0.07145649 -0.08915425 -0.08299221
0003c0 13 d2 7e bd a5 bb bb 39 2d ec f1 3b 09 d6 a1 bd
       -0.06221206 0.00035807226 0.0073828907 -0.07902152
0003d0 f3 71 56 bd 14 ed c3 3d bf de 25 be 82 9a 02 be
       -0.052354764 0.095667034 -0.16198252 -0.12754253
0003e0 b1 ff c4 3e 1f df c8 3d 82 ca f0 3c ca 06 93 bc
       0.38476327 0.09808182 0.029393438 -0.017947573
0003f0 9c 36 d4 3c 2b de 21 3d 1c 61 7a bd 6f 95 d0 3d
       0.025904946 0.039518517 -0.061127767 0.10184752

h2.bias f4 [100]
000000 18 cd e9 3c 4f b6 6f bc a7 b0 da bc 81 08 1f 3e
       0.02854018 -0.014630868 -0.026695563 0.15530588
000010 33 f6 13 3e 66 fc 2e 3d 30 51 3e bd a9 a4 53 bc
       0.14449386 0.042721175 -0.046464145 -0.012917676
000020 42 5e 03 bc 0c c2 7a 3d ba 3e c4 3d 11 6a 3c 3d
       -0.008018078 0.061220214 0.09582277 0.04599959
000030 22 30 22 bd 39 f6 ff 3a 3c 97 d9 bb 94 09 dd bd
       -0.039596684 0.0019528336 -0.006640343 -0.107928425
000040 0c 6f 11 3b da 90 b6 bd 79 90 bb 3d d4 8b 2d 3d
       0.0022191433 -0.08914347 0.09158415 0.04236968
000050 43 0d e9 3d aa 6a 0f 3e bd 78 8a bd 65 03 a2 bc
       0.113794826 0.14005533 -0.0676131 -0.01977701
000060 70 8a 16 3c d0 4d 09 3d e3 7f 40 bd ab df ae bd
       0.0091882795 0.033521473 -0.046996962 -0.08538755
000070 f5 ad 80 bd b0 03 5d 3d 5d 0f 2d be a8 ea e1 bd
       -0.0628318 0.053958595 -0.16900392 -0.11031085
000080 2b 06 56 bd aa 15 23 be c9 5e 27 3e 66 ea bf 3d
       -0.052251976 -0.15926233 0.16344751 0.0937088
000090 71 9d f2 3c 2e 0d 05 be ca 4c ea 3d 48 ed 85 3c
       0.02961609 -0.12993309 0.114404276 0.016348496
0000a0 da 2f 17 bd 17 e3 9c 3d ff 81 a6 3d 7f 6b 77 3d
       -0.03691087 0.076605015 0.081302635 0.06040525
0000b0 34 de d5 bd c1 10 87 bc 2a c5 95 3d 97 aa ac 3d
       -0.104427725 -0.016487481 0.07312997 0.08430975
0000c0 74 64 ac b9 c1 c9 1d 3e a0 e5 27 bd e4 24 c1 bd
       -0.0003288124 0.15408994 -0.04099047 -0.094308645
0000d0 a0 62 80 3c 36 c9 64 3e bf a8 f2 bd 19 3a 54 3c
       0.015672028 0.22342381 -0.11848592 0.012953305
0000e0 7c 6f 31 3d 01 a8 ce 3b de 19 48 3d 5f cc 8c 3d
       0.04331921 0.0063066487 0.048852794 0.06874918
0000f0 f6 26 00 be e0 b5 06 3e cd 29 e4 3d 8e f8 a5 3c
       -0.12514862 0.13155317 0.11140785 0.020260122
000100 fe 45 19 be d5 a1 d4 bc c4 92 35 bd 08 0f 4b 3d
       -0.14968106 -0.025956074 -0.04432942 0.04957488
000110 4e cb c9 bd 27 fd 85 bd 5c 5f 90 ba 94 b6 82 3d
       -0.098532304 -0.065424256 -0.0011014747 0.0638248
000120 be bf a3 3c 11 e7 c3 3d fa 9b ad 3d 03 ca 97 b9
       0.01998889 0.09565557 0.08477016 -0.00028951475
000130 32 dd d4 3d 33 c5 e2 3d 11 4f 35 be f6 45 87 3d
       0.10393752 0.11072769 -0.17705943 0.06605141
000140 48 2c 83 bd 69 dd 42 be 24 97 fc 3d 7d 00 ae 3c
       -0.0640493 -0.19029774 0.12333515 0.021240467
000150 ea 73 0c 3e 4e 63 b2 3d 7b 11 ac 3c 53 63 66 3d
       0.13716093 0.08710347 0.02100443 0.056247067
000160 8b 0e c2 3d 59 0a 83 bd 45 cb 37 3e 29 04 e9 bc
       0.0947543 -0.06398458 0.17948635 -0.028444367
000170 fd aa 39 3c 0f ac 97 bc cf 2b 49 3e 79 f2 d3 bd
       0.011332271 -0.018514661 0.19645618 -0.10348982
000180 3a 6f 1d be 69 49 b9 bd 27 a5 77 bc ba c7 01 3d
       -0.15374461 -0.09047205 -0.015115059 0.031684615

out.weight f4 [4, 100]
000000 b4 2b 1a 3d b7 ae 23 3e 86 ab e0 3e 0e 7a 9b be
       0.037639335 0.15984617 0.43880862 -0.30366558
000010 3b 50 61 3e 92 3e 10 3d dd e0 5b 3e bb 30 66 3e
       0.22003262 0.03521592 0.21472497 0.22479527
000020 f2 39 d8 bd bf af e5 bd 1b ec e1 bc dd 2c de be
       -0.10557927 -0.112151615 -0.027578404 -0.43393603
000030 3c 24 88 be d6 1f 89 be b1 06 41 3f d6 98 71 be
       -0.26590145 -0.267821 0.75400835 -0.23593459
000040 3a 0c 49 be 88 6b 0e bd 33 33 ba 3e 37 1e cf 3d
       -0.1963357 -0.03477052 0.36367187 0.10113185
000050 2d 45 fd 3d de 58 b4 3d 56 b6 54 3f 04 dc 08 be
       0.1236671 0.088060126 0.8309072 -0.1336518
000060 c0 90 84 be a4 dd 3b 3e 46 fa 34 bf 8c 4a e2 be
       -0.25891685 0.18346268 -0.70694387 -0.441975
000070 2a bc 68 bf 5e aa 7d 3e 1f 07 21 3f 8a e3 2d bd
       -0.90912116 0.24772021 0.6290149 -0.042453326
000080 0a 77 95 be e7 06 eb 3d 6d 1c 38 3e 34 92 9e 3e
       -0.29192382 0.11475926 0.17979594 0.3097092
000090 d3 76 1d bf 26 45 1d be 08 b1 c3 bd 61 bd 9d 3e
       -0.61509436 -0.1535841 -0.095552504 0.30808547
0000a0 e1 b6 73 be c3 cb 2c bd a8 3e 12 3f 51 82 87 3e
       -0.23800232 -0.04218651 0.57126856 0.2646661
0000b0 b7 8d 0f bf f7 6c 4a bf 68 8e 72 3e 93 9d af 3d
       -0.56075615 -0.7907252 0.23687136 0.08574977
0000c0 61 74 17 3f db 5d dc bc ee bc 79 3d 9c d4 df 3e
       0.59161955 -0.026900223 0.060971193 0.43716896
0000d0 00 fa 95 3e e6 5d 66 bc cb b3 0e 3f 07 3a ea 3e
       0.29292297 -0.014060473 0.5574309 0.45747396
0000e0 51 f2 cf 3c af 04 83 bf 17 2d a6 3c 31 87 68 be
       0.0253841 -1.0235804 0.020285172 -0.22707821
0000f0 11 66 13 3e 97 61 8e be 1e 39 57 bd 6c 53 62 be
       0.14394404 -0.2780883 -0.052544706 -0.22102135
000100 26 cc da 3c 5c 66 30 3e 0a f4 2a 3d a3 26 a8 be
       0.026708674 0.17226547 0.04173664 -0.32841977
000110 d1 89 00 be 77 76 24 be 47 ad b5 3e 86 bc fd be
       -0.12552573 -0.16060816 0.35483763 -0.49557894
000120 6f c3 85 bd 32 df 21 bd 52 ba af 3e a1 db 41 3c
       -0.065314166 -0.039519496 0.3432184 0.011832149
000130 22 fc 5d 3f 62 98 e7 be 7f 92 1e bb 2e eb 3e 3a
       0.8671285 -0.45233446 -0.0024196205 0.00072829693
000140 33 ed 64 bd e2 9f 02 bf 8e 28 df 3c 17 53 a4 be
       -0.055890273 -0.5102521 0.027241018 -0.32094643
000150 dc a0 47 3f 6b df 9f 3e bd 70 97 be 54 7b b3 3e
       0.77979827 0.31225142 -0.295782 0.3505503
000160 f4 48 ad 3e 95 a6 f3 bd 91 15 c2 be a9 2e f8 3d
       0.3384472 -0.118970074 -0.3790708 0.12118275
000170 68 a0 89 3e e0 45 fe 3e d0 f9 13 3f 7e b0 00 bf
       0.26880193 0.49662685 0.5780306 -0.50269306
000180 15 b1 2e bd 35 64 2e be 1b e3 db be 41 7f 55 3f
       -0.042649347 -0.17030413 -0.42946705 0.833973
000190 e4 09 41 be 19 58 40 be 54 6f e4 bd ca a7 b5 3e
       -0.18851429 -0.18783607 -0.11154047 0.35479575
0001a0 6c dc b7 3c 77 e0 28 bf a0 43 20 be 39 f6 ef 3d
       0.022443973 -0.65967506 -0.15650797 0.11716885
0001b0 96 92 e0 3e 38 8a f9 3e be ab c7 3e 60 25 08 be
       0.43861836 0.48738265 0.38998216 -0.13295507
0001c0 0f 09 53 be 3b 6b 35 3e 91 04 31 bf 88 18 96 3e
       -0.20608924 0.17716686 -0.6914759 0.2931559
0001d0 89 f5 ba 3e 7a 25 43 3e 1e fa 8f bd 66 08 31 be
       0.36515453 0.19057265 -0.07030128 -0.1728836
0001e0 cc 02 8a be b0 32 72 3d 5d 1a 11 3f 7b a4 a4 be
       -0.2695526 0.05913037 0.5668085 -0.3215674
0001f0 93 e8 40 3d 9c b1 20 be 88 ac a7 3e 19 0b d7 3e
       0.0470968 -0.15692753 0.32748818 0.42000654
000200 81 0a 23 be d3 2b 5e bd 90 0f 35 3e 73 51 db be
       -0.15921976 -0.054241013 0.17681718 -0.42835578
000210 0f f4 b1 be b2 4d 88 3e be 6a 49 bd 3a 96 dc 3e
       -0.34756514 0.26621777 -0.049174063 0.43083364
000220 f4 aa de be 83 82 03 bf fc 7f 4a be ae b0 00 bf
       -0.43489802 -0.5137102 -0.19775385 -0.5026959
000230 fe df a2 be a2 e7 e9 3e e6 8d d7 bc 18 1a 83 bd
       -0.31811517 0.45684534 -0.02631278 -0.06401461
000240 fd 6d 19 bc c1 0a f4 3d d8 4b 87 bd 99 7b 9b be
       -0.009364602 0.11916114 -0.06606263 -0.30367735
000250 10 cf 97 be a6 43 3c bf dd a4 d3 be fd ba 1e bc
       -0.29650164 -0.73540723 -0.41336718 -0.009688136
000260 1a 6d a2 3e 41 0c 9f bd 2e 7e 4c 3f 3a 7b d2 3e
       0.31723863 -0.07766009 0.79880035 0.4110964
000270 a9 04 bf 3d 5b 38 37 be 6f be 83 3c c7 66 93 3e
       0.09327061 -0.17892592 0.016082017 0.2878935
000280 50 ab 09 bf 63 93 94 bd 7a cf 08 be b4 8c 80 be
       -0.5377703 -0.07254674 -0.13360396 -0.25107348
000290 40 08 fa 3e 73 ea 04 3f 0b 7a 50 3e 88 c3 30 3e
       0.4883442 0.5192024 0.20359056 0.17262089
0002a0 9f 8f 74 bd 11 b6 cc bc 9d e4 a0 3d 21 92 3f 3e
       -0.05970728 -0.02498916 0.078561045 0.18708088
0002b0 99 d8 f2 3e b9 8a 52 bf 43 2d 1a bf a6 d9 8d 3e
       0.47430876 -0.82242924 -0.60225314 0.27705115
0002c0 54 ca 08 be 1f c1 33 be 1a 24 7c 3e 44 fa 8b be
       -0.13358432 -0.17554139 0.24623147 -0.27339375
0002d0 f6 b3 00 3f e4 10 05 3f 9b 68 0c 3e 28 f8 b5 3e
       0.502746 0.519789 0.13711779 0.3554089
0002e0 a3 ab af 3e a6 04 bb bd 9c 18 49 bd 5f 86 d1 3d
       0.34310636 -0.09131746 -0.049095735 0.102307074
0002f0 4f 5a 9a 3d 91 d9 d2 3e b5 5d e6 3e a2 64 a8 bd
       0.07536756 0.41181615 0.44993368 -0.08222319
000300 4b 15 9b 3e c8 6f 70 be 68 84 01 bf 6a 23 02 bf
       0.30289683 -0.23480141 -0.5059266 -0.5083529
000310 5f 25 55 bd 44 fd 91 3e d2 e0 fa 3d 8e b7 93 3e
       -0.052037593 0.2851354 0.12249912 0.2885098
000320 5e 0e 43 bd 4d f1 21 3e bb 29 fe bd 79 b6 4d be
       -0.047621123 0.15814705 -0.12410303 -0.20089139
000330 07 d4 16 3e 1c 01 94 3e 23 1e 38 3f 36 9b c4 be
       0.1472932 0.28907096 0.71920985 -0.38399667
000340 7d 22 5d bd a6 ae 03 be 9c 9d aa 3e 5f c1 2b 3e
       -0.05398797 -0.12859592 0.3332337 0.16772984
000350 f8 70 ac be 9d 43 e4 be aa c5 8f 3e 34 e3 8a 3d
       -0.33679938 -0.44582835 0.28080493 0.06781617
000360 8c d0 0e be 91 7e b2 3d 42 7f 11 3e 65 7a 42 bd
       -0.13946742 0.08715547 0.14208701 -0.047480006
000370 a3 e8 ad be ba b6 93 3e 82 9d d7 3d 64 87 d2 bd
       -0.3396655 0.28850347 0.10528089 -0.1027973
000380 8f 06 4f be 95 5f 18 3e 63 06 c2 3c 58 87 e2 bd
       -0.20217346 0.14880212 0.023684686 -0.11060971
000390 4a a5 51 3d b6 3e ed bb 47 a1 9f 3d 81 24 65 3d
       0.051183023 -0.0072401417 0.07794433 0.055943016
0003a0 11 4d 36 be fe e8 62 3d 0c f3 85 3d 4c c6 13 be
       -0.17802836 0.05539798 0.06540498 -0.14431113
0003b0 c7 49 1c 3e 68 ec 84 bf 53 44 36 3e 42 6c 57 3e
       0.15262519 -1.0384645 0.17799501 0.21037391
0003c0 fc 8b 91 be 3f f7 5d 3e 71 31 4e bd c2 6c 97 3e
       -0.28427112 0.21676348 -0.05034012 0.29575163
0003d0 f1 3b 5c be 8c 64 08 be 1e ed 91 3e 14 77 43 3e
       -0.21507241 -0.13319606 0.2850122 0.19088393
0003e0 ee 50 8a bd 89 e2 75 3e 5e d9 93 3e ae b2 ae bf
       -0.06753717 0.24012198 0.28876776 -1.3648279
0003f0 d1 c7 e5 3e 1d 45 0a bd d8 6e 2b be 84 ca 46 be
       0.4487901 -0.033757318 -0.16741502 -0.19413191

out.bias f4 [4]
000000 ce 4f 1d 3e d9 af 25 be b9 fb 97 bd cd f5 bf 3c
       0.15362474 -0.16180362 -0.07421059 0.023432637
