p1_navigation/checkpoints/checkpoint.pth (torch, 94453 bytes, 9 tensors)

layer1.weight f4 [128, 37]
-0.19569938 -0.100981854 0.0075430023 -0.01730742 0.22464569 0.058775444 -0.037257936 0.18776202
-0.6582268 -0.004702229 0.08176007 -0.008015655 -0.33708286 -0.66611046 -0.73482525 -0.03720045
-0.22213249 0.18025018 -0.08422098 -0.4785559 -0.24679853 0.014124682 -0.5544701 0.555056
0.1437277 -0.38872647 0.13489544 0.019917378 -0.052201495 -0.029013237 -0.664249 0.13684326
0.09588619 -0.515433 -0.105643146 -0.2269161 -0.08678633 0.10163768 0.27015486 0.05818502
-0.23966362 -0.45417532 -0.026518824 -0.012126913 -0.20541078 -0.13354598 -0.40904236 0.13209954
-0.118869044 0.03739561 -0.014774503 0.450975 0.15377606 0.19278549 -0.040293757 -0.6181265
-0.12647732 0.09160595 -0.61489797 -0.0941188 0.1740511 0.052876204 -0.098071136 0.2688418
-0.2010742 0.26219538 -0.013611019 0.1288769 -0.042648237 0.28415948 -0.54327047 -0.21317013
0.023959493 0.0100634685 -0.16819832 0.0802449 0.28546008 0.08098474 0.16581732 -0.22304097
-0.28441852 0.3078534 -0.30879137 -0.42608947 -0.15892708 0.26561698 -0.21493316 -0.29568854
-0.5327327 -0.249017 0.08366351 0.1621115 0.19059882 0.40736204 -0.50868773 -0.052605025
0.041279443 0.14386928 -0.6139472 -0.7033632 0.10912907 0.2730677 0.14258738 0.040577132
-0.22520098 0.2500934 -0.18526357 -0.6563215 -0.041877244 -0.03569507 -0.037989657 0.44019708
-0.47105998 -0.01858626 -0.076377556 -1.4698336 0.20052837 0.048962455 -0.060113374 0.059348054
0.37842822 -0.19827643 -0.005919289 0.13572526 0.09989501 0.031294044 0.033933043 -0.082381815
-0.0278814 0.027532961 0.06410036 0.4283604 -0.17977424 -0.100630395 -0.026816154 -0.3884683
-0.08133798 0.15354724 -0.021746237 0.16743478 0.34487644 0.06201463 0.14663371 0.048783217
-0.3078656 0.48450768 0.16264181 0.01537275 -0.12703785 -0.017771576 -0.116866425 -0.041769914
-0.047335967 0.06382874 0.4767816 0.07267281 0.053896915 -0.26331788 0.087455556 -0.076320946
0.012975816 0.00755179 0.12727001 -0.15130635 -0.03711756 0.016024807 0.20547897 0.3291197
-0.110552855 0.08655137 0.048453674 0.1749169 0.30590522 0.4167374 -1.3926266 -0.76004505
-0.66372097 -3.1245875 -0.07497302 0.06122217 0.07782297 0.22901851 0.40885186 -0.0062338053
0.017688898 -0.086848214 0.14459184 -0.17074125 0.04497127 0.38427135 0.11345307 0.1809525
-0.007889065 -0.17304002 -1.3784841 -0.4259627 0.046596266 0.22546217 -0.18781951 0.45934615
-0.16350038 0.12290849 -0.095124766 0.21868005 -0.3435363 -0.111260906 -0.16148314 0.3023649
0.42405787 0.12209639 -0.13778599 0.11596699 0.08189617 0.049751196 0.41312954 0.26986906
0.12194233 -0.39852944 -0.3513722 -1.1217142 -0.024355732 -0.020564595 -0.18509847 0.33037853
-0.013090899 -0.46340522 0.09823426 -0.2247575 -0.1471922 0.014561644 0.08710712 -0.3384647
-0.16990003 0.09685164 0.05064605 -0.032883998 0.12652603 -0.15680528 0.08973312 -0.06966852
-0.2404935 0.5629513 -0.1790616 -0.16088669 0.12241639 0.034179162 0.536428 -0.23853575
-0.102164306 0.003994777 0.1272794 -0.023354959 0.18048146 0.07879084 -0.21448733 -0.21186823
00000000: 6b65 48be 93cf cebd 4a2b f73b 4ac8 8dbc
00000010: 8509 663e 85be 703d c79b 18bd b044 403e
00000020: 8d81 28bf 2815 9abb d371 a73d 1854 03bc
00000030: 2096 acbe 3786 2abf 821d 3cbf 805f 18bd
00000040: b376 63be 8193 383e 0d7c acbd 4705 f5be
00000050: c1b8 7cbe 366b 673c c1f1 0dbf 2618 0e3f
00000060: 5b2d 133e 2807 c7be 0822 0a3e c529 a33c
00000070: 3cd1 55bd 2bad edbc 390c 2abf a420 0c3e
00000080: fb5f c43d 6bf3 03bf 6f5b d8bd b25c 68be
00000090: 08bd b1bd 6a27 d03d bd51 8a3e 6a53 6e3d
000000a0: 616a 75be ab89 e8be 013e d9bc f6af 46bc
000000b0: 3457 52be 47c0 08be 006e d1be 1a45 073e
000000c0: 9d71 f3bd 242c 193d c210 72bc 32e6 e63e
000000d0: 7977 1d3e 8f69 453e 110b 25bd 8a3d 1ebf
000000e0: 4583 01be e69b bb3d f469 1dbf 5bc1 c0bd
000000f0: 743a 323e b894 583d 85d9 c8bd a2a5 893e
00000100: 65e6 4dbe 793e 863e c000 5fbc 4ef8 033e
00000110: ebaf 2ebd 5a7d 913e c613 0bbf 4549 5abe
00000120: b346 c43c 3fe1 243c 2e3c 2cbe 7057 a43d
00000130: d327 923e 54db a53d 04cc 293e da64 64be
00000140: 4e9f 91be f69e 9d3e e719 9ebe 6628 dabe
00000150: c8bd 22be f3fe 873e 7017 5cbe 7d64 97be
00000160: 2c61 08bf 50fe 7ebe c657 ab3d 8f00 263e
00000170: 562c 433e c291 d03e 5c39 02bf 5e78 57bd
00000180: a214 293d 7852 133e a52b 1dbf 9c0f 34bf
00000190: 107f df3d 88cf 8b3e 6d02 123e 3534 263d
000001a0: 169b 66be 3e0c 803e bcb5 3dbe b004 28bf
000001b0: 7987 2bbd fe34 12bd 0b9b 1bbd 8361 e13e
000001c0: c62e f1be 3642 98bc d66b 9cbd 8223 bcbf
000001d0: 4f57 4d3e db8c 483d 7139 76bd f216 733d
000001e0: 58c1 c13e fa08 4bbe 98f6 c1bb 90fb 0a3e
000001f0: c195 cc3d 2f2e 003d 60fd 0a3d ccb7 a8bd
00000200: 8967 e4bc ce8c e13c 0d47 833d 0e52 db3e
00000210: bd16 38be 4f17 cebd 8dad dbbc 51e5 c6be
00000220: 8794 a6bd 7d3b 1d3e 2a25 b2bc 0674 2b3e
00000230: a593 b03e 0d03 7e3d 2627 163e e9d0 473d
00000240: 8fa0 9dbe 6411 f83e 938b 263e fddd 7b3c
00000250: 3616 02be b295 91bc aa57 efbd ee16 2bbd
00000260: 5ce3 41bd a4b8 823d b81c f43e 7bd5 943d
00000270: 03c3 5c3d 9ad1 86be e61b b33d 284e 9cbd
00000280: 8498 543c 0275 f73b 1253 023e 0df0 1abe
00000290: 9508 18bd 7546 833c 1469 523e 6182 a83e
000002a0: 8969 e2bd d841 b13d 5c77 463d 6a1d 333e
000002b0: 9c9f 9c3e 9b5e d53e 9741 b2bf 5092 42bf
000002c0: 9ee9 29bf 3ef9 47c0 748b 99bd 19c4 7a3d
000002d0: a661 9f3d d483 6a3e 0855 d13e f344 ccbb
000002e0: 4fe8 903c 7add b1bd e20f 143e cbd6 2ebe
000002f0: cb33 383d 37bf c43e 155a e83d 9d4b 393e
00000300: 2341 01bc 6731 31be 2b72 b0bf c817 dabe
00000310: badb 3e3d 8edf 663e c253 40be 6b2f eb3e
00000320: a56c 27be 72b7 fb3d c6d0 c2bd aaed 5f3e
00000330: fde3 afbe c2dc e3bd d65b 25be 92cf 9a3e
00000340: 1d1e d93e ac0d fa3d c517 0dbe 1a80 ed3d
00000350: 2eb9 a73d e9c7 4b3d b785 d33e 472c 8a3e
00000360: e6bc f93d 0d0c ccbe 0fe7 b3be 5594 8fbf
00000370: ac85 c7bc 1577 a8bc 748a 3dbe 6027 a93e
00000380: 367b 56bc 7343 edbe 0b2f c93d d526 66be
00000390: 8db9 16be f693 6e3c 3865 b23d 3f4b adbe
000003a0: 46fa 2dbe 275a c63d 3c72 4f3d 5fb1 06bd
000003b0: 0a90 013e 9091 20be ffc5 b73d 5eae 8ebd
000003c0: ee43 76be 941d 103f ed5b 37be 7bbf 24be
000003d0: 72b5 fa3d 73ff 0b3d 5853 093f b742 74be
000003e0: 853b d1bd 9ee6 823b 8855 023e e652 bfbc
000003f0: 22d0 383e 185d a13d 91a2 5bbe fcf3 58be

layer1.bias f4 [128]
-0.08319765 0.04698038 -0.06305711 -0.034493938 0.018535616 -0.10014844 0.02273898 -0.063768804
-0.22986259 -0.019982764 -0.08119048 -0.09479317 -0.11209817 -0.11565327 -0.10604115 -0.070318535
-0.014898802 -0.030908491 -0.12179679 -0.13129795 -0.115788326 0.03215514 0.12032549 -0.10447083
-0.036267363 0.18529718 0.031315707 -0.051823914 -0.08097796 -0.07396497 0.12707531 0.06664984
-0.060088914 -0.014903943 0.07370903 -0.2539437 -0.09685383 -0.008594553 0.056467343 -0.07431757
0.085233174 0.048895676 0.07759159 0.085150234 0.048050012 -0.10261657 -0.028337251 -0.2230803
-0.31036332 -0.06163423 0.0051941797 0.18032414 0.0067609283 -0.0090417545 0.07918306 0.048085414
-0.061537843 -0.026035847 0.031234365 -0.07761349 -0.17479795 -0.016221894 0.060481537 -0.15463595
0.12545672 -0.057154913 -0.00903114 -0.09452075 -0.18063127 -0.07849892 0.0462226 -0.15262479
0.092115924 -0.14694124 -0.08361552 -0.0326714 0.13653956 -0.14461625 -0.024854656 0.03353877
-0.086895935 0.0114374375 0.015606609 -0.13438188 -0.0010973235 0.16390882 -0.05156466 -0.15202656
-0.12222299 -0.10134139 0.18069084 -0.0994578 -0.18936807 -0.11422762 -0.064202406 0.046939213
-0.0017871888 -0.22353871 -0.09088875 0.13509312 -0.12802148 -0.20243114 0.13946289 0.23195192
-0.2690088 -0.20331289 -0.12089486 0.23278789 -0.08789815 0.014963888 0.065587014 -0.12443198
-0.14073838 0.012243753 -0.057157274 0.043535702 0.004417848 0.12807986 -0.06260386 -0.024115412
-0.02999732 0.025264535 -0.07438706 -0.15324053 -0.11292349 0.0827817 0.12546748 -0.053058665
00000000: 8863 aabd 806e 403d 1624 81bd 8449 0dbd
00000010: 01d8 973c a01a cdbd 1947 ba3c 3899 82bd
00000020: 1961 6bbe e5b2 a3bc 3247 a6bd ec22 c2bd
00000030: ba93 e5bd 9fdb ecbd 1a2c d9bd 2a03 90bd
00000040: 1b1a 74bc ce33 fdbc 9870 f9bd f872 06be
00000050: 6e22 edbd 1cb5 033d 366d f63d cdf4 d5bd
00000060: 168d 14bd 8bbe 3d3e e644 003d 5045 54bd
00000070: c6d7 a5bd f27a 97bd 0820 023e b67f 883d
00000080: cb1f 76bd ab2f 74bc c3f4 963d e904 82be
00000090: 4d5b c6bd 2bd0 0cbc 4d4a 673d cf33 98bd
000000a0: bb8e ae3d d546 483d 57e8 9e3d 3f63 ae3d
000000b0: 17d0 443d a328 d2bd 8623 e8bc 2a6f 64be
000000c0: f1e7 9ebe 2d74 7cbd f033 aa3b e4a6 383e
000000d0: c78a dd3b de23 14bc ba2a a23d 36f5 443d
000000e0: 1b0f 7cbd 2149 d5bc 36df ff3c d2f3 9ebd
000000f0: 3cfe 32be c7e3 84bc 7dbb 773d e358 1ebe
00000100: ba77 003e 451b 6abd 59f7 13bc 1894 c1bd
00000110: 67f7 38be 0bc4 a0bd e953 3d3d ac49 1cbe
00000120: 46a7 bc3d c477 16be 9d3e abbd 72d2 05bd
00000130: 07d1 0b3e 4816 14be fe9b cbbc f35f 093d
00000140: 7ff6 b1bd 1764 3b3c ddb2 7f3c 679b 09be
00000150: 11d4 8fba b7d7 273e 7735 53bd daac 1bbe
00000160: 0c50 fabd 138c cfbd 0507 393e 88b0 cbbd
00000170: b4e9 41be 2cf0 e9bd 8d7c 83bd 5543 403d
00000180: 1b40 eaba 55e7 64be e223 babd da55 0a3e
00000190: 1018 03be 1c4a 4fbe 5ccf 0e3e ce84 6d3e
000001a0: 85bb 89be 4131 50be b997 f7bd f35f 6e3e
000001b0: f203 b4bd 182b 753c 7c52 863d 32d6 febd
000001c0: b91d 10be 069a 483c bf1d 6abd 7e52 323d
000001d0: 98c3 903b 5e27 033e 7436 80bd af8d c5bc
000001e0: f1bc f5bc 92f7 ce3c 3e58 98bd 16eb 1cbe
000001f0: 6e44 e7bd 7489 a93d 8c7a 003e 0b54 59bd

layer2.0.weight f4 [128, 128]
-0.42047536 -0.13989347 0.19907233 0.07975627 -0.1742461 0.10915758 -0.114751086 -0.33198875
-0.120747924 0.033234764 0.14819117 0.12604405 -0.16861413 -0.19953015 0.08362316 -0.16091874
-0.33258832 0.06482075 -0.09508862 -0.25391552 0.028652487 0.009415858 -0.30250764 -0.052292205
-0.4653093 0.09341261 -0.09747528 -0.43377307 -0.33525398 0.16621028 0.34525537 0.22039321
0.07044991 0.0845468 -0.02532684 -0.3913089 -0.1728129 -0.13902566 0.33540085 -0.4138564
-0.13524754 -0.12770392 -0.2848081 -0.118748434 0.094920844 -0.05829931 0.024583515 -0.2987274
0.13941246 -0.84753454 -0.35218632 -0.14122987 0.009696175 -0.3120626 -0.23555976 -0.31997028
-0.031116402 -0.31880167 -0.16717623 -0.123544954 -0.18273726 0.015026315 -0.4042843 0.1222273
-0.33626816 -0.07126593 0.24711224 -0.013155409 -0.17159319 -0.29950514 -0.13567996 0.029001838
-0.49486306 -0.21572089 0.07677195 -0.36562362 0.020135703 -0.30912706 -0.07892663 0.12627478
-0.22979213 0.1994032 0.18567993 -0.28611228 -0.20678656 -0.1299208 0.00035311512 -0.19822595
0.015718622 -0.052363753 0.019495657 -0.18520766 -0.14535111 -0.2179177 -0.19747564 -0.09137687
-0.08723094 -0.5304544 0.0072896034 -0.45631152 -0.10535742 -0.38160694 -0.28373367 -0.24373087
-0.063247815 -0.25044447 0.11452656 0.22648261 -0.06805716 -0.42654204 -0.3419237 0.22638874
-0.07117199 0.3778412 -0.5181217 -0.31232515 -0.14325729 -0.20438191 -0.39378256 0.3802739
-0.17257077 -0.2505192 -0.08300832 -0.17995682 -0.1306659 0.070633106 -0.14862482 -0.26188606
-0.1072258 0.11174929 0.2811722 -0.26693764 -0.21381168 -0.0647808 0.15670314 -0.17165273
0.3359094 -0.1268429 0.15951449 0.17518342 -0.19394843 -0.18640652 -0.057796072 -0.044051614
-0.05335883 0.10051102 -0.25626975 -0.23042287 -0.18298383 -0.0605913 0.09952277 -0.3604427
0.14115171 -0.08256514 0.31641573 -0.26556876 0.34030792 0.08297463 0.09880461 -0.09365534
-0.032019913 -0.07160708 -0.13854964 -0.049122807 -0.057677876 -0.015850509 -0.48772082 -0.54831517
-0.021523608 -0.24194366 0.18641873 0.067189544 0.07921641 -0.23190616 -0.01977128 0.044526264
-0.35921785 -0.66176796 -0.3208176 -0.20754257 -0.0727157 0.071517766 -0.060844313 0.025170108
-0.01732808 -0.5838938 -0.38419604 -0.22051454 -0.31751105 -0.009404618 -0.011186997 -0.09398561
-0.16465846 -0.16634229 0.073922485 -0.12828378 0.1760582 -0.21729216 -0.00071834255 -0.0026430902
-0.7380958 -0.07560095 -0.20670934 -0.6845769 -0.082414486 0.11158651 0.017967865 -0.32001004
-0.29312417 0.030171167 0.11467324 -0.6351841 -0.16900007 -0.2743423 0.20125854 -0.10908649
0.03224046 0.010562814 0.1290191 -0.09708155 0.21203005 -0.1779505 -0.5798236 -0.22696173
-0.48828596 -0.068610184 -0.3265892 0.10259462 0.11994998 0.10875608 -0.11982847 0.23951912
0.006234156 -0.14359465 0.10030503 0.09950153 0.08167609 -0.67648387 0.0138925165 -0.36689073
-0.45860404 0.58530015 -0.085182995 -0.22032925 0.0569184 -0.34733236 0.24667515 -0.046326764
-0.14462379 0.049432226 -0.08819679 0.14424244 -0.22227727 -0.09050156 -0.07500747 -0.053328846
00000000: 8c48 d7be 3c40 0fbe 9ed9 4b3e 4157 a33d
00000010: 926d 32be 028e df3d 9e02 ebbd 6efa a9be
00000020: b04a f7bd 2d21 083d 6dbf 173e b111 013e
00000030: 2fa9 2cbe a251 4cbe 9f42 ab3d e2c7 24be
00000040: 0449 aabe bec0 843d d3bd c2bd 3701 82be
00000050: 9fb8 ea3c f944 1a3c 48e2 9abe 5a30 56bd
00000060: 053d eebe 1c4f bf3d 1fa1 c7bd 8117 debe
00000070: 69a6 abbe 0733 2a3e 50c5 b03e c2ae 613e
00000080: 0b48 903d df26 ad3d 3c7a cfbc a459 c8be
00000090: ddf5 30be be5c 0ebe a9b9 ab3e fce4 d3be
000000a0: 557e 0abe d1c4 02be 5ed2 91be 6132 f3bd
000000b0: dc65 c23d 42cb 6ebd 5e63 c93c ccf2 98be
000000c0: 24c2 0e3e 06f8 58bf c451 b4be 909e 10be
000000d0: b5dc 1e3c abc6 9fbe 9436 71be 25d3 a3be
000000e0: d3e7 febc f939 a3be 3f30 2bbe 2305 fdbd
000000f0: 7a1f 3bbe ef30 763c 5afe cebe 4f52 fa3d
00000100: 572b acbe dff3 91bd fe0a 7d3e c989 57bc
00000110: 20b6 2fbe bd58 99be b0ef 0abe 4395 ed3c
00000120: b15e fdbe f0e5 5cbe 9d3a 9d3d 0533 bbbe
00000130: a1f3 a43c e745 9ebe 49a4 a1bd 2d4e 013e
00000140: a14e 6bbe 5a30 4c3e e122 3e3e 4f7d 92be
00000150: dbbf 53be f509 05be 4f22 b939 befb 4abe
00000160: 57c4 803c 607b 56bd 5bb5 9f3c 14a7 3dbe
00000170: ecd6 14be d125 5fbe 0e37 4abe cc23 bbbd
00000180: 23a6 b2bd dccb 07bf a0dd ee3b aaa1 e9be
00000190: a2c5 d7bd fc61 c3be 8a45 91be 9694 79be
000001a0: 1288 81bd 423a 80be e78c ea3d 0feb 673e
000001b0: 8d61 8bbd b863 dabe a010 afbe 73d2 673e
000001c0: 9fc2 91bd 6774 c13e a0a3 04bf 15e9 9fbe
000001d0: 0ab2 12be 7e49 51be de9d c9be 43b3 c23e
000001e0: 64b6 30be 0d44 80be 4400 aabd 9a46 38be
000001f0: 48cd 05be 17a8 903d 1b31 18be ee15 86be
00000200: 3399 dbbd d0dc e43d cdf5 8f3e 0dac 88be
00000210: 73f1 5abe ccab 84bd ca76 203e bcc5 2fbe
00000220: 51fc ab3e 1be3 01be c457 233e 4863 333e
00000230: 6b9a 46be 5ae1 3ebe 93bb 6cbd 776f 34bd
00000240: ca8e 5abd b9d8 cd3d ca35 83be f9f3 6bbe
00000250: 1d60 3bbe 952e 78bd 98d2 cb3d f28b b8be
00000260: 138a 103e ea17 a9bd 3e01 a23e a1f8 87be
00000270: d73c ae3e 9aee a93d 125a ca3d 5fce bfbd
00000280: 5027 03bd bca6 92bd f5df 0dbe ff34 49bd
00000290: a33f 6cbd edd8 81bc 8bb6 f9be 625e 0cbf
000002a0: 4752 b0bc 14c0 77be 8de4 3e3e ac9a 893d
000002b0: 373c a23d cf78 6dbe 61f7 a1bc 2c61 363d
000002c0: 67eb b7be a069 29bf 3442 a4be 0a86 54be
000002d0: f8eb 94bd e877 923d e337 79bd 8b31 ce3c
000002e0: 9ef3 8dbc 107a 15bf 58b5 c4be 90ce 61be
000002f0: cf90 a2be d415 1abc ab49 37bc 877b c0bd
00000300: 3a9c 28be a255 2abe ac64 973d d35c 03be
00000310: 9a48 343e d681 5ebe 274f 3cba b237 2dbb
00000320: d9f3 3cbf acd4 9abd 9dab 53be 6f40 2fbf
00000330: edc8 a8bd 7887 e43d 5831 933c 5bd8 a3be
00000340: 5f14 96be 8629 f73c ced9 ea3d 6d9b 22bf
00000350: 5b0e 2dbe 9876 8cbe b816 4e3e bd68 dfbd
00000360: 930e 043d a70f 2d3c 951d 043e b1d2 c6bd
00000370: 681e 593e a838 36be 526f 14bf a868 68be
00000380: 9e00 fabe 7f83 8cbd b336 a7be 211d d23d
00000390: 56a8 f53d 82bb de3d a168 f5bd 8044 753e
000003a0: e447 cc3b 7a0a 13be b96c cd3d 75c7 cb3d
000003b0: cb45 a73d 0c2e 2dbf 709d 633c 1ad9 bbbe
000003c0: 26ce eabe 3bd6 153f 6c74 aebd fe9d 61be
000003d0: 4523 693d 8cd5 b1be 6998 7c3e 22c1 3dbd
000003e0: 4218 14be 7279 4a3d 85a0 b4bd 4ab4 133e
000003f0: a79c 63be e258 b9bd 849d 99bd 596f 5abd

layer2.0.bias f4 [128]
-0.066756964 -0.01428293 -0.19654903 -0.008440647 -0.24885666 0.06478914 -0.14414011 -0.09131145
-0.16372912 -0.0013212613 0.015588154 -0.03921004 -0.16729568 -0.11353345 0.17006549 -0.22627002
-0.1634177 -0.06945483 -0.19351627 -0.1871509 -0.1695865 -0.15315638 -0.20960453 -0.038602743
0.21162686 -0.115843736 -0.15325296 0.027072228 -0.031302057 0.10390824 -0.20262945 0.10802992
-0.1663803 -0.32275426 -0.0469505 -0.1516477 0.05562614 -0.013920556 -0.08196609 -0.15523194
-0.20864296 -0.11609624 -0.044475604 -0.15229802 -0.17066096 0.0013433857 -0.11127904 -0.012882232
0.057810128 -0.08244609 -0.07332751 -0.38139364 -0.1137465 -0.1493212 0.016092801 -0.16136868
-0.18418887 0.09929302 -0.039139993 -0.08758637 -0.042397957 -0.08552184 -0.11179912 -0.13815695
0.0032883976 -0.25419906 -0.09269217 -0.20632868 -0.10343013 -0.14458546 -0.011177808 -0.27278453
-0.17338459 -0.09572418 -0.16367863 -0.116322935 0.033156894 -0.09405792 -0.16574273 -0.06293161
-0.1417701 -0.1659406 0.08830013 -0.14145616 -0.08725547 -0.006576562 -0.07675358 -0.18152203
-0.09246769 -0.057431288 -0.229614 -0.06583269 -0.15155236 -0.15596817 -0.3054016 0.025073782
-0.07019332 -0.094007455 -0.1355134 -0.13236085 -0.20691654 -0.042961817 0.19588411 -0.28214338
-0.13523915 -0.11035196 -0.060737237 -0.104487985 -0.1977894 -0.22906397 -0.048767675 -0.114587575
-0.14985768 -0.0041539995 0.01391824 -0.0009836508 0.04150241 -0.1774176 0.013141157 0.029930113
0.0029958563 -0.1838602 -0.16716053 -0.19757147 -0.14792685 -0.01410931 -0.027553698 -0.033566684
00000000: e0b7 88bd f302 6abc 2644 49be a44a 0abc
00000010: 48d4 7ebe 2bb0 843d 7799 13be 7f01 bbbd
00000020: 9ba8 27be 2c2e adba 7565 7f3c b59a 20bd
00000030: 8f4f 2bbe 3a84 e8bd a625 2e3e 54b3 67be
00000040: f856 27be 553e 8ebd 2129 46be 7ca4 3fbe
00000050: 15a8 2dbe 07d5 1cbe 92a2 56be e91d 1ebd
00000060: b6b4 583e 7b3f edbd 58ee 1cbe 94c6 dd3c
00000070: 9636 00bd d8cd d43d 187e 4fbe ca3e dd3d
00000080: 995f 2abe 0c40 a5be 2b4f 40bd 8949 1bbe
00000090: 3cd8 633d 0b13 64bc d6dd a7bd 1ff5 1ebe
000000a0: 80a6 55be dec3 edbd 0d2c 36bd 03f4 1bbe
000000b0: bfc1 2ebe 8b14 b03a 44e6 e3bd ff0f 53bc
000000c0: 50ca 6c3d 7fd9 a8bd bc2c 96bd 0746 c3be
000000d0: edf3 e8bd a8e7 18be 0dd5 833c d53d 25be
000000e0: 029c 3cbe 245a cb3d 4251 20bd 7c60 b3bd
000000f0: 7ba9 2dbd 1326 afbd f0f6 e4bd 0479 0dbe
00000100: 2882 573b 6126 82be 64d5 bdbd d347 53be
00000110: 2dd3 d3bd 360e 14be 2023 37bc 6aaa 8bbe
00000120: bb8b 31be 0a0b c4bd 5f9b 27be b83a eebd
00000130: 86cf 073d 70a1 c0bd 76b8 29be 4ae2 80bd
00000140: 2e2c 11be 55ec 29be b3d6 b43d e2d9 10be
00000150: ffb2 b2bd 3380 d7bb fb30 9dbd e9e0 39be
00000160: b35f bdbd 123d 6bbd ef1f 6bbe 4ad3 86bd
00000170: 8b30 1bbe 1fb6 1fbe 995d 9cbe 8867 cd3c
00000180: 84c1 8fbd fb86 c0bd 06c4 0abe 9a89 07be
00000190: eee1 53be bbf8 2fbd d895 483e 1975 90be
000001a0: 227c 0abe 3500 e2bd 9cc7 78bd ccfd d5bd
000001b0: 4e89 4abe bf8f 6abe 9dc0 47bd e4ac eabd
000001c0: 4b74 19be 461e 88bb 5409 643c d8ed 80ba
000001d0: 6efe 293d f6ac 35be 024e 573c ff2f f53c
000001e0: 2156 443b d945 3cbe 212c 2bbe 2d50 4abe
000001f0: 237a 17be bc2a 67bc 4bb8 e1bc 387d 09bd

output.weight f4 [4, 128]
0.086589575 -0.03604588 0.07642351 0.040347103 0.06505963 0.08281311 -0.02358094 -0.008610453
0.046586964 0.018389218 -0.046003904 -0.05153103 -0.037886612 -0.06418929 -0.07535733 -0.00908174
-0.016114056 0.045809958 -0.06021992 -0.045152243 -0.013080632 0.054234702 -0.046121486 -0.054188255
0.05686029 -0.024409715 -0.087360375 -0.019102838 0.014079966 0.032999255 -0.06758292 -0.045723155
-0.0029093863 -0.0006287467 -0.036163975 0.009878821 0.026390597 -0.07611023 -0.08838483 0.014147696
0.009795075 0.07332651 -0.059443038 0.0036781658 -0.0026019989 0.016078347 -0.05088334 0.0107236225
0.032141417 -0.086211905 0.007645038 -0.08729297 -0.0627354 -0.017200181 0.07177899 0.07386988
0.05974147 0.024607183 -0.04726145 -0.0538163 -0.06705929 0.050647803 -0.016314423 -0.030507352
0.048749782 -0.05386802 -0.038154867 0.020662703 0.045744736 -0.08703459 0.031067885 -0.026645238
-0.0033176208 0.020091034 -0.07265288 0.009083035 -0.07435388 0.015350661 -0.06865886 -0.08324618
0.03545822 -0.0771793 0.062481258 0.0029513962 0.08140826 -0.008548045 0.03478318 0.007922785
0.08238873 -0.047683164 0.007209766 -0.062755026 0.04151612 0.08549533 -0.053481556 -0.077320434
0.026713884 -0.006492701 0.01602363 -0.012209047 0.039598756 -0.0163974 -0.00044716752 -0.032659635
0.033222053 0.024439955 0.07098074 0.053537432 0.01584283 -0.008002791 -0.0076212143 -0.04501454
0.06925904 -0.05954983 0.08350264 -0.03799629 -0.048615966 0.0016286174 -0.022623627 -0.06316688
-0.020164115 0.045927126 0.0021169623 0.08621646 0.023534283 -0.055428796 -0.06475358 -0.042631082
-0.055713676 0.023602994 -0.023951432 -0.06321714 0.057519764 -0.07833314 -0.036514554 0.045166552
0.034243852 0.05162304 0.015006912 -0.07802 0.023101825 -0.078454725 -0.088025585 0.08597483
0.006998389 -0.05629663 0.08675229 -0.036920693 -0.07058741 0.04094601 0.07374913 -0.04179159
0.06041151 -0.03982288 -0.01885613 0.05244112 0.034667574 0.06755631 -0.029063972 0.050238337
0.054413382 -0.036324177 -0.0818865 0.0073741707 0.03189295 -0.074457474 -0.074935734 0.07039768
0.0031884934 -0.059687722 0.08806795 0.076286174 -0.03432611 0.0047953 -0.048255812 0.026906453
0.048793647 0.06286917 0.080719665 0.01331812 -0.065086365 -0.0846201 0.017595328 0.040414516
-0.052600466 0.0059285653 -0.077006355 0.029599931 0.02924597 -0.086342454 -0.023475667 -0.07460441
-0.06134104 -0.05356247 0.058693256 -0.040480044 -0.0053197015 0.08272297 -0.07881664 0.04428126
-0.008582774 0.0023182558 0.06252799 -0.08324028 0.034452826 0.044294946 -0.015397076 0.011730152
0.062292114 -0.059437286 0.074148 -0.060994454 0.04608096 0.07142864 0.028381499 -0.07568088
0.08766519 0.019816542 -0.025828 0.055925895 0.060390998 0.02856061 -0.069706544 0.015918864
-0.04137026 -0.04995492 0.08173207 -0.04926464 -0.06271459 -0.028088493 0.08722442 -0.029596444
-0.06894161 -0.04791319 -0.051232412 0.0343108 0.038486574 0.04923598 0.0029328833 -0.07214619
-0.05966179 0.043391317 -0.0813706 0.0167659 -0.059137758 -0.010166968 -0.028738672 0.05031493
0.011317546 -0.06514663 -0.057942275 -0.0070852856 0.037779633 -0.022635417 -0.03684768 -0.075227685
00000000: e055 b13d d8a4 13bd ee83 9c3d 0143 253d
00000010: fc3d 853d eb99 a93d d12c c1bc dc12 0dbc
00000020: f9d1 3e3d fca4 963c 976e 3cbd 3412 53bd
00000030: fe2e 1bbd ad75 83bd f254 9abd 94cb 14bc
00000040: a001 84bc 39a3 3b3d 2aa9 76bd 8ff1 38bd
00000050: 2650 56bc 3525 5e3d e2e9 3cbd 81f4 5dbd
00000060: 56e6 683d e2f6 c7bc ffe9 b2bd 8e7d 9cbc
00000070: a8af 663c 3a2a 073d ea68 8abd 3448 3bbd
00000080: 67ab 3ebb 7ad2 24ba ad20 14bd c7da 213c
00000090: 1831 d83c aedf 9bbd 1b03 b5bd bdcb 673c
000000a0: 867b 203c 362c 963d 8b7a 73bd 620d 713b
000000b0: 4c86 2abb bdb6 833c 0d6b 50bd 22b2 2f3c
000000c0: b8a6 033d de8f b0bd 3a83 fa3b a8c6 b2bd
000000d0: 6b7b 80bd 65e7 8cbc dd00 933d 1749 973d
000000e0: 79b3 743d 0195 c93c 3995 41bd 7b6e 5cbd
000000f0: 6256 89bd 1274 4f3d d3a5 85bc 8eea f9bc
00000100: daad 473d b7a4 5cbd 4748 1cbd d444 a93c
00000110: d55e 3b3d 313f b2bd 1482 fe3c 1d47 dabc
00000120: 716c 59bb f495 a43c 08cb 94bd 03d1 143c
00000130: d946 98bd 5781 7b3c 049d 8cbd f97c aabd
00000140: a33c 113d 2e10 9ebd 59ec 7f3d 366c 413b
00000150: 60b9 a63d 190d 0cbc cf78 0e3d 92ce 013c
00000160: 6cbb a83d 6c4f 43bd e73f ec3b b585 80bd
00000170: cf0c 2a3d 2d18 af3d 7a0f 5bbd 2d5a 9ebd
00000180: 13d7 da3c b9c0 d4bb fd43 833c 7408 48bc
00000190: 4e32 223d d753 86bc cf71 eab9 1cc6 05bd
000001a0: d913 083d 4d36 c83c 5a5e 913d 114a 5b3d
000001b0: d3c8 813c 231e 03bc 61bb f9bb 2b61 38bd
000001c0: afd7 8d3d 86ea 73bd 6f03 ab3d ffa1 1bbd
000001d0: 8921 47bd 5577 d53a 2f55 b9bc a35d 81bd
000001e0: 372f a5bc 151e 3c3d bcbc 0a3b 4192 b03d
000001f0: f8ca c03c 4e09 63bd 869d 84bd ee9d 2ebd
00000200: 0634 64bd 115b c13c cb35 c4bc fd77 81bd
00000210: d899 6b3d 206d a0bd 4990 15bd 9000 393d
00000220: 4843 0c3d ae72 533d 8ddf 753c f3c8 9fbd
00000230: 0a40 bd3c dfac a0bd c246 b4bd 9213 b03d
00000240: be52 e53b 4c97 66bd 2fab b13d 273a 17bd
00000250: 2290 90bd 01b7 273d c909 973d a92d 2bbd
00000260: 0f72 773d 511d 23bd 2c78 9abc 80cc 563d
00000270: 96ff 0d3d f65a 8a3d 9117 eebc b7c6 4d3d
00000280: 91e0 5e3d a9c8 14bd 1cb4 a7bd 07a3 f13b
00000290: 2fa2 023d 297d 98bd e877 99bd a92c 903d
000002a0: 0bf6 503b 1d7b 74bd f85c b43d ed3b 9c3d
000002b0: 8999 0cbd e421 9d3b e3a7 45bd ec6a dc3c
000002c0: d9db 473d 8dc1 803d 5a50 a53d 3e34 5a3c
000002d0: 004c 85bd 4e4d adbd 1424 903c b189 253d
000002e0: 9673 57bd 6944 c23b 82b5 9dbd 8e7b f23c
000002f0: 3f95 ef3c 50d4 b0bd 0b50 c0bc 32ca 98bd
00000300: be40 7bbd 5264 5bbd 5768 703d 67ce 25bd
00000310: e450 aebb a96a a93d 9e6a a1bd 4460 353d
00000320: c39e 0cbc e1ed 173b ad0e 803d e179 aabd
00000330: 681e 0d3d 9e6e 353d 0444 7cbc d32f 403c
00000340: 0426 7f3d 8374 73bd e8da 973d 52d5 79bd
00000350: 64bf 3c3d 2e49 923d 5180 e83c 94fe 9abd
00000360: cf89 b33d 4d56 a23c 3e95 d3bc 8d12 653d
00000370: 8d5c 773d f1f7 e93c 4ec2 8ebd 4768 823c
00000380: dd73 29bd 889d 4cbd 2563 a73d b8c9 49bd
00000390: 8270 80bd d719 e6bc b7a2 b23d 3e74 f2bc
000003a0: 4231 8dbd 9f40 44bd 14d9 51bd 7b89 0c3d
000003b0: 19a4 1d3d abab 493d 9e35 403b 62c1 93bd
000003c0: ec5f 74bd 18bb 313d a1a5 a6bd a458 893c
000003d0: 6f3a 72bd 5b93 26bc 5d6d ebbc 0717 4e3d
000003e0: 3a6d 393c 996b 85bd e154 6dbd af2b e8bb
000003f0: d1be 1a3d e96d b9bc 98ed 16bd f910 9abd

output.bias f4 [4]
-0.04469909 0.0528061 -0.006003292 -0.014466442
00000000: 6516 37bd 364b 583d 43b7 c4bb a804 6dbc

value_stream.weight f4 [1, 128]
0.5038547 -0.06502282 0.73889816 -0.17145878 0.22089854 0.2752375 0.085341506 0.120016575
0.23875122 -0.051203303 0.19202767 -0.21521696 0.1275401 0.16335833 0.005758082 0.2309081
0.42456743 -0.20942533 0.18554422 0.10086229 0.25356764 0.25645396 0.59458655 0.4704395
0.11154425 -0.1424321 0.13949443 -0.026637647 0.28048742 0.25627542 0.27464056 -0.09527622
-0.21959056 -0.14572133 0.016562002 -0.1999199 -0.12756097 0.44007286 0.29483828 0.06769548
0.45796186 0.2418127 0.38234073 0.35025373 0.13535537 -0.31148124 -0.05996993 0.20282431
0.27251506 0.18332164 0.4867018 -0.12887911 -0.30753648 -0.06548387 -0.091134936 0.35380864
0.020960357 0.20434074 -0.27756852 0.22311075 -0.25428998 0.71788794 0.24259052 -0.24601036
-0.031632993 -0.17613544 0.23771678 -0.17366157 0.03914049 -0.2025266 -0.006467618 -0.19829127
-0.05021767 -0.1545402 -0.22455542 0.27001297 -0.29879823 -0.4512778 0.21222457 -0.098478146
0.3006636 -0.24026972 0.1430353 0.027959965 0.17458208 0.4267416 -0.45818245 -0.45301336
0.04946778 -0.10172195 -0.044703778 0.44391796 -0.17573878 -0.26311436 -0.09802123 -0.2578786
-0.12826894 0.025147142 -0.36356363 0.30040544 0.37220672 0.095727645 -0.12454936 0.018470291
-0.46247956 0.10991276 0.32900217 -0.43491098 -0.09087699 0.015222625 0.31969303 -0.18314494
0.15609889 0.13842727 -0.10004409 -0.12709604 -0.25238374 0.022218352 0.16489106 -0.23972654
0.37853298 0.1481086 -0.17637381 -0.16004398 0.03248518 0.1608162 0.021595487 0.22130653
00000000: 9ffc 003f af2a 85bd 6e28 3d3f e492 2fbe
00000010: 3a33 623e eeeb 8c3e 87c7 ae3d 40cb f53d
00000020: 337b 743e 8eba 51bd e7a2 443e d661 5cbe
00000030: df99 023e 6847 273e 4bae bc3b 2c73 6c3e
00000040: e760 d93e 9873 56be 4eff 3d3e e390 ce3d
00000050: 9ed3 813e ef4d 833e d336 183f 72dd f03e
00000060: 5071 e43d b8d9 11be a1d7 0e3e 3237 dabc
00000070: 0c9c 8f3e 8836 833e b09d 8c3e 2e20 c3bd
00000080: 59dc 60be f937 15be 09ad 873c cdb7 4cbe
00000090: 589f 02be 3b51 e13e 0bf5 963e eea3 8a3d
000000a0: fa79 ea3e c09d 773e 2ac2 c33e 7554 b33e
000000b0: 999a 0a3e 787a 9fbe 08a3 75bd 2db1 4f3e
000000c0: 1887 8b3e abb8 3b3e fa30 f93e e3f8 03be
000000d0: 6c75 9dbe 681c 86bd f4a4 babd 6826 b53e
000000e0: 0eb5 ab3c b33e 513e 761d 8ebe 2577 643e
000000f0: 4c32 82be 81c7 373f a669 783e 24ea 7bbe
00000100: 9991 01bd d95c 34be 076c 733e 57d4 31be
00000110: c751 203d 2263 4fbe 50ee d3bb de0c 4bbe
00000120: 0bb1 4dbd c93f 1ebe dbf1 65be 243f 8a3e
00000130: 15fc 98be e20d e7be 6651 593e e9ae c9bd
00000140: 94f0 993e 4409 76be d877 123e 4c0c e53c
00000150: a5c5 323e e07d da3e e496 eabe 5ef1 e7be
00000160: ba9e 4a3d 9953 d0bd 4f1b 37bd 3749 e33e
00000170: def4 33be edb6 86be 5bbf c8bd aa08 84be
00000180: ef58 03be 6101 ce3c 0325 babe bece 993e
00000190: e191 be3e db0c c43d bc13 ffbd 024f 973c
000001a0: 1fca ecbe f119 e13d f972 a83e a7ac debe
000001b0: b71d babd 5168 793c ceae a33e 598a 3bbe
000001c0: 63d8 1f3e e1bf 0d3e eae3 ccbd 7725 02be
000001d0: 7138 81be 4303 b63c 34d9 283e e07a 75be
000001e0: 13cf c13e c8a9 173e 569b 34be 92e2 23be
000001f0: 2e0f 053d 00ad 243e 05e9 b03c 2e9e 623e

advantage_stream.weight f4 [4, 128]
-0.10303364 -0.119981654 -0.7213997 0.39316013 0.18614434 0.03297181 0.0578905 0.07495168
0.17008626 -0.2240764 -0.51920867 0.1463989 -0.07339312 0.03799495 0.02811643 -0.04299546
-0.3686809 0.22253513 -0.22938894 -0.1413566 -0.31955075 -0.008461254 -0.3365287 -0.19893646
0.19314827 -0.25110313 0.25762358 0.14657241 0.08636139 0.013199639 0.29208785 0.25269517
0.3142837 0.013615797 0.37606215 -0.058629982 0.037546095 -0.1720694 0.020866577 0.032232035
-0.63843685 -0.03571849 -0.22373854 0.036366586 -0.061491437 0.5829971 0.007875191 -0.046620283
-0.014609848 0.11378701 -0.23998219 -0.04757561 0.33654606 0.04173968 0.33554664 -0.19961536
0.121471874 0.035813957 0.36962518 -0.099806376 -0.7229708 -0.3901628 -0.16941509 0.266792
-0.17093454 0.10232669 0.03757215 -0.3918684 -0.15577605 0.3268799 -0.08675289 0.5516419
0.3505339 -0.7480042 -0.035720795 -0.05936586 -0.15248236 0.17656617 -0.11906981 -0.013632582
-0.38986567 0.37232035 -0.050693728 -0.043843117 0.02753698 0.071826585 -0.05875943 -0.17644574
-0.14984582 -0.02683379 -0.11325792 0.113199055 0.010595837 0.43574584 0.098355964 0.6860744
0.010234389 0.028050236 -0.58602476 -0.5256567 -0.09963324 -0.07760478 0.014715451 -0.09325414
-0.46220732 -0.18606809 -0.44776407 -0.7102103 0.17994982 -0.20799322 -0.03596556 0.2022617
-0.26524246 -0.11230461 -0.534858 -0.4293286 0.073003784 0.06537646 -0.1743195 -0.5835961
-0.20119771 0.12624303 -0.050953325 -0.042889178 -0.00012736347 -0.056091957 0.060725246 -0.20411052
-0.31561685 0.24282199 -0.14915317 -0.4401229 0.2555366 0.07353034 0.31227857 0.016888294
0.054099567 0.15207192 -0.21937591 0.23989323 -0.2334607 0.10951771 -0.0029896675 -0.37006944
-0.09185815 -0.124447316 -0.007121242 -0.024722321 -0.31890088 0.07658209 0.0072075194 0.22441103
0.11309836 0.34365404 0.1514832 0.09872588 0.017508337 -0.0041377344 0.33957815 0.13420084
-0.24593335 0.00094117096 -0.60478264 0.33472538 0.31824306 -0.3353671 -0.38046667 0.10264989
-0.5064472 0.0056984774 0.18975027 0.09865495 0.10725802 0.035528995 -0.07718739 0.39452538
0.03114543 0.38711083 0.5441193 0.06437625 0.33574548 -0.034607023 0.27693263 0.35061228
0.2164241 0.053388774 0.13236435 0.3912105 0.44710088 -0.11649663 0.26716822 0.20971791
0.19956061 0.05099754 -0.0022320803 -0.04071186 -0.08619351 0.21481119 -0.3516264 -0.15405208
-0.49553472 0.40715277 0.081979446 0.22666317 0.26599586 -0.28792664 0.09463606 0.18648688
0.11663624 -0.42031345 -0.07158178 -0.082425736 0.010055002 -0.011841423 0.2577404 0.47983566
0.14080364 0.23165545 -0.08314515 -0.08220284 0.16463946 0.20680405 0.46626714 0.15182173
0.034469556 0.013677276 0.5515297 -0.26985207 0.01050226 -0.020337293 0.082564615 -0.052006304
0.7130909 -0.06117001 -0.105956845 0.37451625 0.3775959 -0.12600642 -0.058613434 -0.18936124
0.25709832 -0.02155621 0.22617431 0.6045316 -0.6960195 -0.703463 -0.1455671 0.20082289
0.0008720925 -0.089632444 0.045996856 -0.01426475 -0.043599978 0.061698936 -0.83108383 -0.049286127
00000000: 4d03 d3bd f1b8 f5bd a7ad 38bf 494c c93e
00000010: 9f9c 3e3e 730d 073d 971e 6d3d 4480 993d
00000020: 182b 2e3e 4974 65be dcea 04bf 98e9 153e
00000030: 224f 96bd 98a0 1b3d 6d54 e63c 021c 30bd
00000040: bec3 bcbe 40e0 633e efe4 6abe c9bf 10be
00000050: 289c a3be 12a1 0abc 7d4d acbe 00b6 4bbe
00000060: a9c8 453e 9790 80be 3de7 833e 1417 163e
00000070: 3ede b03d 4c43 583c 8a8c 953e 4361 813e
00000080: cbe9 a03e cb14 5f3c 388b c03e fe25 70bd
00000090: efc9 193d f632 30be 62f0 aa3c bd05 043d
000000a0: 9970 23bf 8d4d 12bd b71b 65be 21f5 143d
000000b0: 72de 7bbd 4c3f 153f f206 013c e9f4 3ebd
000000c0: 255e 6fbc 2a09 e93d e4bd 75be a5de 42bd
000000d0: c44f ac3e 3af7 2a3d c5cc ab3e f867 4cbe
000000e0: 3fc6 f83d a8b1 123d 833f bd3e 4967 ccbd
000000f0: 9d14 39bf 6bc3 c7be 267b 2dbe f698 883e
00000100: 7709 2fbe a890 d13d 41e5 193d faa2 c8be
00000110: c283 1fbe cd5c a73e 80ab b1bd 6738 0d3f
00000120: 2e79 b33e 347d 3fbf f84f 12bd 9e29 73bd
00000130: 5624 1cbe c3cd 343e dfda f3bd 315b 5fbc
00000140: 799c c7be c6a0 be3e 3aa4 4fbd d794 33bd
00000150: 3c95 e13c d119 933d baad 70bd 31ae 34be
00000160: 2f71 19be 89d2 dbbc c5f3 e7bd e8d4 e73d
00000170: 299a 2d3c 141a df3e da6e c93d 92a2 2f3f
00000180: 24ae 273c 9cc9 e53c b805 16bf 7091 06bf
00000190: 830c ccbd 41ef 9ebd 1319 713c 07fc bebd
000001a0: 70a6 ecbe a288 3ebe 5541 e5be 58d0 35bf
000001b0: c444 383e 2dfc 54be 9f50 13bd b11d 4f3e
000001c0: dccd 87be f6ff e5bd 74ec 08bf f5d0 dbbe
000001d0: 0283 953d 18e4 853d d080 32be 8e66 15bf
000001e0: c606 4ebe da45 013e 6fb4 50bd 90ac 2fbd
000001f0: df8c 05b9 aec0 65bd 09bb 783d 5902 51be
00000200: 8898 a1be 54a6 783e 9cbb 18be ca57 e1be
00000210: b1d5 823e 1397 963d fae2 9f3e 5259 8a3c
00000220: 8297 5d3d beb8 1b3e 14a4 60be 92a6 753e
00000230: 5210 6fbe d24a e03d 4cee 43bb be79 bdbe
00000240: 2020 bcbd 3cde febd 4f59 e9bb 7786 cabc
00000250: fa46 a3be 12d7 9c3d 0e2d ec3b 01cc 653e
00000260: 1da0 e73d 6cf3 af3e 691e 1b3e cb30 ca3d
00000270: a56d 8f3c d595 87bb 30dd ad3e f26b 093e
00000280: f4d5 7bbe eab8 763a 09d3 1abf 2061 ab3e
00000290: c1f0 a23e 3db5 abbe 87cc c2be 1b3a d23d
000002a0: 86a6 01bf 4bba ba3b e54d 423e 9b0b ca3d
000002b0: 18aa db3d da86 113d 6c14 9ebd 3bff c93e
000002c0: b324 ff3c 6433 c63e 674b 0b3f b2d7 833d
000002d0: d5e6 ab3e 18c0 0dbd 1dca 8d3e 7483 b33e
000002e0: 479e 5d3e 30ae 5a3d 858a 073e be4c c83e
000002f0: 68ea e43e c995 eebd 46ca 883e 4bc0 563e
00000300: 9e59 4c3e cce2 503d 1848 12bb 7bc1 26bd
00000310: 3986 b0bd 77f7 5b3e 6008 b4be d4bf 1dbe
00000320: bab6 fdbe 5476 d03e d7e4 a73d 641a 683e
00000330: 9c30 883e 1f6b 93be 8dd0 c13d 6bf6 3e3e
00000340: fbde ee3d 5333 d7be 7899 92bd d3ce a8bd
00000350: bcbd 243c 8702 42bc 8df6 833e 05ad f53e
00000360: d42e 103e 1637 6d3e 0148 aabd f659 a8bd
00000370: 3f97 283e 71c4 533e 91ba ee3e 2877 1b3e
00000380: f32f 0d3d a716 603c 0d31 0d3f 0d2a 8abe
00000390: ac11 2c3c 659a a6bc a317 a93d 9004 55bd
000003a0: 208d 363f 688d 7abd e7ff d8bd 98c0 bf3e
000003b0: 4054 c13e d407 01be a414 70bd eae7 41be
000003c0: 64a2 833e a696 b0bc 3d9a 673e 95c2 1a3f
000003d0: 552e 32bf 2716 34bf 8b0f 15be 84a4 4d3e
000003e0: 239d 643a 3791 b7bd 3367 3c3d b3b6 69bc
000003f0: e495 32bd 06b8 7c3d e9c1 54bf 40e0 49bd

advantage_stream.bias f4 [4]
-0.011600426 -0.08246089 -0.03613614 -0.019412272
00000000: b70f 3ebc 41e1 a8bd 7d03 14bd 7c06 9fbc
